model/model.pt (torch, 24436 bytes, 29 tensors)

feature_layer.fc.0.weight f4 [25, 6]
000000 ca 2e 9b be b9 e1 8d 3d 8a 88 28 3e 30 9f 9a 3d
       -0.30309135 0.06927819 0.16458336 0.07549894
000010 32 08 92 3f d7 b0 62 be be a6 72 bc 87 ba bb bd
       1.1408751 -0.22137772 -0.014810262 -0.09166437
000020 a3 d6 25 bd e6 21 7e 3f b9 e4 e0 be e5 c5 25 3e
       -0.040487897 0.99270475 -0.43924502 0.16188772
000030 da ec 05 b8 f0 7b 28 bd a5 dd 14 37 8c 51 a6 3c
       -3.1930256e-05 -0.04113382 8.873093e-06 0.020302556
000040 45 90 ea 3b 92 2e a5 38 db 6b 02 bc 9e 7f 8a bd
       0.0071583115 7.8764875e-05 -0.007960285 -0.06762622
000050 61 ca 36 bc da 2d 89 bf eb 61 87 3f 6b ca 33 be
       -0.011156649 -1.0717118 1.0576757 -0.17557685
000060 f6 0c 75 3c a6 86 2a 3b 06 d9 96 39 90 00 55 bf
       0.014956703 0.0026020198 0.00028771925 -0.83203983
000070 74 46 8a bd da a6 a3 3b c3 47 40 40 98 10 47 3b
       -0.06751719 0.0049942555 3.00438 0.003037488
000080 b9 a5 17 c1 ba c4 85 b9 c2 c9 43 3b af c7 3d bf
       -9.47796 -0.0002551431 0.0029874896 -0.7413282
000090 d3 7f 49 bc 05 df c1 3c 59 8f 34 3d 8b 71 4b be
       -0.012298542 0.023665914 0.04408202 -0.19867532
0000a0 a4 85 46 bf c2 e7 d5 3d ba 60 31 bc 23 93 d7 3c
       -0.7754767 0.10444595 -0.010826284 0.026315277
0000b0 80 e0 d5 b8 14 d7 47 3f 7a bf b0 3f 1f dd 3b bd
       -0.00010198448 0.7806256 1.3808434 -0.045865174
0000c0 b6 cd 9a bd 96 22 a1 3d a1 14 dc 3d d3 1d d9 3e
       -0.075587675 0.07867925 0.10746122 0.42405567
0000d0 dd 23 95 bf 73 94 9e 3e 0e a9 b7 40 ea c3 f7 b9
       -1.165157 0.30972633 5.7393866 -0.0004725748
0000e0 e8 e6 35 41 a5 10 53 3c c2 c0 68 3a 8a 39 dc 3f
       11.368874 0.012882386 0.0008878821 1.720506
0000f0 58 0b da bd e3 11 0f bd 60 b1 a2 bd b2 2c ff 3f
       -0.10646695 -0.034929167 -0.07943988 1.9935515
000100 89 29 d4 3e 40 13 34 bd 75 d5 f2 bd 17 85 95 bd
       0.4143794 -0.04396367 -0.1185712 -0.073007755
000110 fd a1 63 3d 7b ef 92 3f a3 a6 a0 3f 65 81 24 be
       0.055574406 1.1479334 1.2550853 -0.16064985
000120 35 0e ef 3b ce c8 07 3d 34 ef 90 bb 03 0d c9 3f
       0.007295395 0.033150487 -0.0044230465 1.5707096
000130 b0 48 26 be a6 d3 89 3c 35 64 ec bd f5 c2 df 3e
       -0.16238666 0.016824555 -0.115425505 0.43703428
000140 7c 40 73 3d 3c 29 a9 3d 9a 2c 01 3d 0b 67 be 3d
       0.05938767 0.08259818 0.031536676 0.09296998
000150 1f f6 0b be 81 58 ca 3d 5c 95 05 3e 11 2b 9e be
       -0.13668106 0.09880162 0.13045257 -0.30892232
000160 e8 f5 07 3f ca 6c da 3d 5f 9d 24 3d 96 71 da bd
       0.531096 0.10665281 0.040189143 -0.10666196
000170 f8 77 78 bd 46 48 b6 3e df 54 2d 3f c0 76 e0 bc
       -0.060661286 0.35602015 0.6770763 -0.027400374
000180 ce 58 35 3e 23 31 70 bd 1a a1 29 3d 26 c6 88 bf
       0.17709658 -0.05864061 0.041413404 -1.068547
000190 10 01 c8 bf b1 47 bb 3c 0a 0c 9c 3d bc 77 a5 bd
       -1.5625324 0.022861334 0.07619484 -0.08079478
0001a0 a4 16 92 bc 4d 3f f7 be 58 b7 8c be b0 31 d5 bc
       -0.017833062 -0.48290482 -0.2748363 -0.02602467
0001b0 46 7d 40 bb 22 65 84 bd 71 fc 81 bd 5a 25 0c 3f
       -0.0029371544 -0.06464602 -0.063469775 0.54744494
0001c0 db 11 81 3f d7 19 aa bd 81 b5 f7 bc 8e 50 3b 3d
       1.0083574 -0.0830571 -0.030237915 0.04573112
0001d0 d6 22 14 bd 8d de 0f 3f 45 b9 c7 bf 3a bc 31 3e
       -0.036166035 0.5619896 -1.5603415 0.17356959
0001e0 95 ce 08 be 7c 5a 66 bc 58 3a 3a bd 6a f3 0d 3e
       -0.13360055 -0.014059659 -0.045465797 0.13862386
0001f0 37 6c ff 3f 35 92 16 be 8f 68 9a bd 41 e6 1d 3d
       1.99549 -0.14704211 -0.07539474 0.038549665
000200 3e 3b a9 bd d0 92 23 3f e4 38 f1 3f 7f 36 b6 be
       -0.08263253 0.63895893 1.8845487 -0.35588452
000210 68 09 f6 3d 05 71 da be 42 51 f3 bd 72 67 98 bd
       0.12013513 -0.42664352 -0.11880733 -0.07441606
000220 4c 1a 73 3e 8c c3 96 bd ef d7 0a 38 3d dc 1b 3d
       0.237405 -0.07361516 3.3102868e-05 0.038051832
000230 2c c4 0f 36 0a 27 79 3c 6c 74 79 bd 5c 40 2b 39
       2.1422848e-06 0.015207062 -0.060902044 0.00016331807
000240 3d 21 b4 3d 7f 95 76 3b 56 26 dc 3d 1d 79 ba bf
       0.08795402 0.0037625728 0.107494995 -1.4568211
000250 30 77 e9 bf f5 67 e1 3e
       -1.8239498 0.44024625

feature_layer.fc.0.bias f4 [25]
000000 4a 5f 22 b2 95 f5 1d b1 30 3e 19 2a 8c b9 70 31
       -9.451307e-09 -2.2986104e-09 1.3610705e-13 3.5030068e-09
000010 5e 8f a6 b0 ce 52 ef b5 d2 45 1f b1 b0 83 c0 30
       -1.2118837e-09 -1.7830987e-06 -2.3177233e-09 1.4007266e-09
000020 50 92 e5 af 0e 3a 9a b5 dd f1 a2 b2 d8 6f dc b1
       -4.175882e-10 -1.149079e-06 -1.8969269e-08 -6.415558e-09
000030 89 43 2e b1 4e 78 ae b1 e0 b6 15 b2 f6 34 28 b0
       -2.5358722e-09 -5.0777436e-09 -8.714522e-09 -6.1193306e-10
000040 00 97 d2 b0 47 fb 58 b1 dc 9f d2 af cb 95 bd 31
       -1.5322428e-09 -3.1574972e-09 -3.8312364e-10 5.5176534e-09
000050 0d 6a a2 32 e4 59 a4 b0 c0 8e 52 31 ee 21 51 2c
       1.8907508e-08 -1.1958119e-09 3.0640166e-09 2.9719521e-12
000060 06 7c d0 31
       6.0676966e-09

feature_layer.fc.1.weight f4 [25]
000000 f4 f2 dd 3e 1b c0 1c 3f 07 02 7a 3a 8d 3d 6a 3f
       0.4334942 0.6123063 0.0009537045 0.9150017
000010 08 41 00 3e ba 90 c2 3e 75 a8 b0 3d 8d 4d c6 3e
       0.12524807 0.38001043 0.08625881 0.38731042
000020 db e5 1f 3f d1 9f 90 3e c2 66 9b 3f e1 3c 38 3f
       0.62460107 0.2824693 1.2140734 0.71967894
000030 8f c6 7a 3e a7 69 bf 3e 29 8b c0 3e 29 9d c8 3e
       0.24489807 0.37385294 0.3760617 0.39182404
000040 99 f4 8c 3f 37 3b 80 3e c4 19 41 3e 3a 04 cc 3e
       1.1012145 0.25045177 0.18857485 0.39846975
000050 c2 32 76 3e c5 7c 2f 3f 05 4f 05 3f 66 c3 82 ba
       0.240428 0.6854976 0.520737 -0.0009976446
000060 68 85 af 3f
       1.3712587

feature_layer.fc.1.bias f4 [25]
000000 a5 6e af be 22 5b 94 bf a4 48 de 38 f6 9f 8e bf
       -0.34264103 -1.1590312 0.00010599315 -1.1142566
000010 79 13 b3 3f c2 9d 19 be 1c 21 f7 bd f8 88 98 bf
       1.3990318 -0.15001586 -0.12066862 -1.19168
000020 1d a0 22 bf a1 78 df 3d 05 c2 00 3f 84 52 04 bf
       -0.63525563 0.1091168 0.5029605 -0.5168841
000030 5f 14 38 3c a0 f8 d6 be 0c 4d ce be 4c f4 87 bf
       0.011235326 -0.4198656 -0.40293157 -1.0621428
000040 5d ec 89 be 79 8e 9d 3f 92 9d 9a 3e ba f0 43 bf
       -0.26938143 1.2309104 0.30198342 -0.76539195
000050 af 89 af bf 79 0a 4f bf 3b a6 cd bd 5c 9f d5 3b
       -1.3713893 -0.80875355 -0.100414716 0.0065192413
000060 89 27 46 bf
       -0.77404076

feature_layer.fc.1.running_mean f4 [25]
000000 6d 6a 4e 46 a5 89 7c c6 86 bd f4 c5 ec 99 55 c6
       13210.606 -16162.411 -7831.6904 -13670.48
000010 19 af 60 c4 7f 34 12 44 2a 8d 8a 45 05 f6 b6 45
       -898.7359 584.82025 4433.6455 5854.7524
000020 cd e3 6b 46 18 b6 a6 43 32 55 8a c5 9b 5d 48 c6
       15096.95 333.4226 -4426.6494 -12823.401
000030 51 dd f5 45 77 ce a2 47 f9 86 8f 46 c7 04 9d c6
       7867.6646 83356.93 18371.486 -20098.389
000040 f7 5b 40 c6 04 18 7b c6 96 b8 37 c6 68 72 0d 46
       -12310.991 -16070.004 -11758.146 9052.602
000050 9c f8 20 c5 fc 60 fe 45 6d df 9e c7 b4 2f e3 45
       -2575.538 8140.123 -81342.85 7269.963
000060 4b 63 80 c4
       -1027.1029

feature_layer.fc.1.running_var f4 [25]
000000 1b c2 47 4c c5 9d ff 4c 55 44 90 4b 85 d7 b7 4c
       5.236542e+07 1.3401655e+08 1.8909354e+07 9.638609e+07
000010 42 4e e0 4b 9f 1e d8 47 31 2f 03 4b 5f 6d fb 4b
       2.9400196e+07 110653.24 8.597297e+06 3.295507e+07
000020 4a 8c 8c 4c 67 0c 95 46 84 a9 2e 4d c4 32 e2 4c
       7.368763e+07 19078.201 1.8314656e+08 1.1859306e+08
000030 67 2f dc 4c 66 d6 fc 4e 70 d9 d3 4c 61 e7 00 4d
       1.1544044e+08 2.1209546e+09 1.1107008e+08 1.3516546e+08
000040 eb 43 a1 4c 0e 4b 9e 4c 71 6b 67 4c ad 28 09 4c
       8.4549464e+07 8.299122e+07 6.0665284e+07 3.595538e+07
000050 c1 f0 70 4a 9f 74 ff 4b e0 f3 f0 4e ab 08 76 4b
       3.9475682e+06 3.348307e+07 2.0212572e+09 1.6124075e+07
000060 ac f1 ab 4c
       9.014819e+07

feature_layer.fc.3.weight f4 [25, 25]
000000 cd ab 5d be cd 8a 06 be c3 7d 33 bc 78 aa 84 bd
       -0.21647568 -0.13138886 -0.010955277 -0.06477827
000010 23 d0 a9 3e 0f 6e 5a be 1b a8 81 3e 69 a7 c0 bd
       0.33166608 -0.21331047 0.25323567 -0.09406931
000020 12 7f ff 3d 76 c4 02 c0 fb 20 4c be 96 32 df bd
       0.124754086 -2.043241 -0.19934456 -0.108983204
000030 18 95 29 be 63 9d 5e 3d 12 e6 c8 bc d0 af f2 bd
       -0.16560781 0.054349314 -0.024523769 -0.1184994
000040 f6 74 57 3e d1 a1 b8 3e 93 4f 9d 3c 9a fa 12 3e
       0.21040711 0.36060956 0.019202983 0.1435341
000050 05 51 17 bf 04 a5 46 be 2e d2 a2 bd 5b c6 bb bb
       -0.59108 -0.19398886 -0.07950245 -0.005730433
000060 45 c7 3a 3d 16 ee a8 3e 81 6c 85 be cc 62 0d 3c
       0.045600194 0.32994145 -0.26059344 0.008629512
000070 96 dc 4e 3e b8 cc be be e8 37 22 3e 54 7b f8 bd
       0.20201334 -0.37265563 0.15841639 -0.12132898
000080 02 fc d2 bd c6 49 bc be 58 86 6a 3f e6 a9 b6 3e
       -0.10301973 -0.36775035 0.9161124 0.35676497
000090 28 b2 64 3e 44 e1 2d be 57 b7 fd 3c 0d 3f bc bd
       0.22333586 -0.16980463 0.030971212 -0.091917135
0000a0 1c 7b 90 3e c4 e4 f7 bd f8 ad 29 bf e1 d9 69 bd
       0.28218925 -0.121041805 -0.6628108 -0.05709255
0000b0 09 e0 f5 be 30 ea d5 3d f2 c7 47 be 46 0a 26 3e
       -0.48022488 0.10445058 -0.19509867 0.16214857
0000c0 01 14 02 3c 69 8b ad be 2e aa 56 be 7a 7b 69 3f
       0.00793934 -0.33895424 -0.20963356 0.91204035
0000d0 ff 64 54 ba 73 18 53 be f6 c8 06 3f ab e3 b0 be
       -0.0008102208 -0.20614795 0.5265039 -0.34548697
0000e0 73 8b 8a 3e f3 8c 69 be 07 b6 09 3f 80 4c 60 bd
       0.27059516 -0.22807674 0.53793377 -0.054760456
0000f0 d4 98 59 bd c6 e7 a2 3e 2d 0b f0 be a7 6e f8 3e
       -0.053124264 0.31817454 -0.46883526 0.4852192
000100 e0 45 99 3d 15 1a ca be ce 00 e3 3e 22 32 85 3e
       0.07484031 -0.39473024 0.4433655 0.2601481
000110 e4 20 60 be 17 0b 5b 3c 06 8e 13 bf 77 53 40 be
       -0.21887547 0.013369343 -0.57638586 -0.1878184
000120 a7 49 7c bc 74 7d d2 3c 11 6c 87 3e 44 28 d3 be
       -0.015398419 0.025694586 0.26449636 -0.41241658
000130 60 d3 9f be c9 2f 1f 3d 87 95 82 bd a0 c1 c1 3d
       -0.31215954 0.03886393 -0.06376176 0.09460759
000140 56 b1 66 3e 45 0c 80 3d 0f 71 02 3f 0c 39 c2 3e
       0.22528586 0.0625234 0.50953764 0.37934148
000150 fc c5 24 bf e2 21 ae 3d 4b 80 09 bf ff 92 31 3e
       -0.643646 0.085025564 -0.53711385 0.17341231
000160 9e d0 28 be bb db 6b be 55 59 1b bf c8 83 41 3e
       -0.16485831 -0.2303304 -0.60683185 0.18897927
000170 85 08 05 3f e6 0e 09 bc 2b 20 a9 3e ed 12 84 bd
       0.51966125 -0.0083653685 0.33032355 -0.06448922
000180 81 81 87 3e 5f c0 38 3c d0 c6 05 bc f6 f9 c1 bd
       0.2646599 0.011276334 -0.008165076 -0.094715044
000190 b6 9b bc 3d bf 1f 0c bf 51 2e 4a 3c e0 63 2c be
       0.09209387 -0.5473594 0.012340144 -0.16834974
0001a0 2e fd 5f 3d be c0 17 3c 8f f4 c3 3a 2b 8e de 3b
       0.05468481 0.009262262 0.0014950203 0.00679185
0001b0 3a 07 87 be 2f 9d 10 3e e9 86 28 3d c8 e6 a4 bd
       -0.263727 0.14122461 0.041144285 -0.080518305
0001c0 e5 b9 a4 3e ae b2 e0 bb fd c7 73 3e c0 04 30 3d
       0.32173076 -0.006857238 0.23806758 0.04297328
0001d0 57 c3 4c bf 53 fd 06 3f 2a 57 bd 3c 4b 75 00 bf
       -0.79985565 0.5273029 0.023112852 -0.50178975
0001e0 ee 18 e9 3b d1 3d 11 bd 99 67 ff 3d 21 ed a1 3c
       0.0071135676 -0.035459343 0.124709316 0.019766392
0001f0 01 e7 0d bf 83 ab 3e 3c 26 5d 10 3c de 14 20 bc
       -0.5543061 0.011637571 0.008811271 -0.0097706
000200 53 bd 8a bd 80 fe 79 3c 93 40 5f bd 91 4f e4 bd
       -0.06774392 0.015258431 -0.054504942 -0.111479886
000210 be 32 e1 3d 02 23 1a bd 9f c4 a2 bf a3 09 a7 3d
       0.109960064 -0.037631042 -1.2716254 0.08156135
000220 ea 09 3a 3d 2a ac 04 be 70 c8 f8 bd 52 80 af be
       0.04541961 -0.129563 -0.121476054 -0.34277588
000230 46 8a ea 3d b4 00 3c bd 05 ac 15 be 57 fa 89 3e
       0.11452155 -0.045899108 -0.14616401 0.26948807
000240 b1 c8 70 bd e3 ff 1b 3e e2 cd 9c bc ef d0 93 3e
       -0.058785144 0.15234332 -0.019141141 0.2887034
000250 80 0a 22 bd 53 f8 95 3c 4c 02 27 3f 66 bd cd be
       -0.039560795 0.018306887 0.6523788 -0.40183562
000260 5a 53 e6 ba de 75 18 3f 24 d4 39 be 14 06 7c be
       -0.0017572448 0.5955485 -0.18147331 -0.24611694
000270 ad b9 1d be 75 28 58 3e ba cc b2 be 00 bb d4 be
       -0.15402861 0.21109183 -0.3492182 -0.4154892
000280 34 f2 a0 bd f4 7e d3 3e 80 af bc b7 74 6c dd 3d
       -0.078586966 0.41307795 -2.249307e-05 0.108117014
000290 aa 1f dd 3d 97 e0 43 3e 81 4a c1 be f2 01 e7 3d
       0.10797055 0.19128643 -0.37752154 0.11279668
0002a0 f4 fe 0a 3e df 7f 06 bf 19 ee 52 3f 64 d0 3b 3f
       0.1357382 -0.52538866 0.8239456 0.73364854
0002b0 0c 98 38 3e d8 cb 39 3c e8 02 69 3c 48 ca db 3e
       0.18026751 0.011340104 0.014221884 0.42927766
0002c0 26 3c fc be f1 82 8b 3c 76 69 15 bd 94 74 25 3e
       -0.4926464 0.017030211 -0.03647753 0.16157752
0002d0 5c b5 a0 3d dd 67 e0 bd 12 ab c9 3e 83 4b 3a be
       0.078470916 -0.1095731 0.3938833 -0.18192868
0002e0 3c 0d 3c bf 74 08 de bd 55 5e f6 bd 76 be ce 3e
       -0.73457694 -0.10841456 -0.12029711 0.40379685
0002f0 1d 7c f7 3c 8c f5 fb bc 0e 7d 08 3e c3 ec 53 be
       0.030210549 -0.030756734 0.13328955 -0.20695786
000300 66 e6 5a be 5e ea 1d 3d 53 98 72 be 4b f0 21 3d
       -0.21376953 0.038553588 -0.2369092 0.0395358
000310 f2 2e c8 3e d2 41 65 3e 1d ea 0a 3c 52 b6 b9 be
       0.39098316 0.2238839 0.0084786685 -0.36271912
000320 3c 46 5a bd f0 3c e7 3d 08 eb 70 bc 7f 31 bc 3e
       -0.053289637 0.1129092 -0.014704473 0.36756513
000330 19 c2 a6 3d bd c2 8d be 0e 79 a0 3d b9 75 8d be
       0.0814249 -0.27687636 0.07835589 -0.27628878
000340 44 ca bb 3d 5e 0e 9b 3f 9b a4 46 3b 53 ca 2d 3e
       0.091694385 1.211376 0.0030310515 0.16971712
000350 63 67 00 bd 60 9d 43 be f6 cd 56 bd 86 e8 15 3d
       -0.031348597 -0.19103003 -0.052442513 0.036598705
000360 0c 1e 27 3e 10 9f ad 3d 04 75 c6 bc 42 25 97 be
       0.16320056 0.084776044 -0.02422572 -0.29520613
000370 de 62 2a be 1e 34 b0 bd 82 6c ac bd 78 42 b9 3c
       -0.16639277 -0.086036906 -0.08419134 0.022614703
000380 39 39 5b 3e e9 57 66 3d b9 cd 20 be 45 89 96 3a
       0.21408547 0.05623618 -0.15703477 0.0011485001
000390 75 26 91 3e b8 64 3b 3e 08 51 5d 3f 9e cf 8b bd
       0.28349653 0.1830014 0.8645177 -0.06826709
0003a0 47 60 21 3d 2d e9 39 bd dc a4 e9 3e 28 f9 b8 bd
       0.039398458 -0.04538839 0.4563359 -0.09031898
0003b0 a7 3e 85 bc f0 d1 aa be 03 90 05 be 79 c7 40 bd
       -0.016265227 -0.33363295 -0.13043217 -0.047065232
0003c0 26 d4 31 3e 4f bf 1b 3f 7f fe b8 bc 04 e8 01 3e
       0.17366084 0.6083879 -0.02258229 0.12686163
0003d0 33 9e 09 bf 7c 70 76 3e 37 41 4d 3e 91 72 20 3d
       -0.5375702 0.24066347 0.20044409 0.03917176
0003e0 44 18 13 bd a4 cb 55 be 07 ec 84 3c 48 b6 36 3e
       -0.035911813 -0.20878464 0.016225828 0.17842972
0003f0 1a d2 43 3c 1b db ba 3c e8 e2 44 be e8 4a 71 be
       0.011951948 0.022809556 -0.19227183 -0.2356373

feature_layer.fc.3.bias f4 [25]
000000 4f 76 83 39 73 1d 93 38 cc 8f 3a b9 a6 df 0a b9
       0.00025074414 7.0149916e-05 -0.00017791911 -0.00013244021
000010 18 61 46 b8 3c 57 9d 37 c1 b7 3a 39 e8 3c e9 38
       -4.7297304e-05 1.875648e-05 0.00017806796 0.000111216505
000020 e0 c9 44 b8 68 c4 a6 38 e8 b7 4a b7 d6 47 32 b9
       -4.6918052e-05 7.95208e-05 -1.2082957e-05 -0.00017002164
000030 b1 8d 9f b9 05 53 13 b9 df 12 10 b9 14 da b8 37
       -0.00030432412 -0.0001404994 -0.0001373994 2.203606e-05
000040 2c 03 98 38 96 ac 4b b8 38 22 18 b7 d5 4e 4b b9
       7.2485156e-05 -4.8559705e-05 -9.067873e-06 -0.00019388956
000050 c1 1b a4 b8 58 7c 47 39 65 58 7c ba 38 36 81 b7
       -7.825299e-05 0.0001902444 -0.0009626209 -1.5403246e-05
000060 ab 73 d8 38
       0.000103212275

feature_layer.fc.4.weight f4 [25]
000000 95 35 53 3f e5 af 5b 3f 70 2e 37 3f cb 3e 28 3f
       0.82503635 0.8581527 0.71555233 0.65720814
000010 c5 00 c3 3f 65 a1 5d 3f 44 03 43 3f 07 d6 fb 3e
       1.523461 0.86574394 0.7617686 0.49186727
000020 83 21 d9 3e 04 aa 6b 3f 77 4d f0 3e 70 ef 30 3f
       0.4240838 0.920563 0.469341 0.6911535
000030 63 c5 2b 3f 6d 5a de 3e d3 0a 01 3f bc ae 07 3f
       0.67098063 0.43428364 0.5040714 0.53001
000040 f5 99 de 3e ef 61 c0 3f 0c 17 07 40 f0 91 ac 3f
       0.43476835 1.5029887 2.1107817 1.3482037
000050 14 21 0f 3f f3 37 98 3f 4a 88 c9 3e 4e c7 6f 3f
       0.5590985 1.1892074 0.39361793 0.9366349
000060 2e 66 f8 3f
       1.9406183

feature_layer.fc.4.bias f4 [25]
000000 c1 1e 79 3d fc 36 b5 be 62 5a 64 3f 6f 88 5a 3f
       0.060820345 -0.35393512 0.89200413 0.8536443
000010 a6 10 c1 3e 95 c6 6e bf 08 a4 b8 bf 99 f1 1f bf
       0.37708014 -0.9327176 -1.4425058 -0.62478024
000020 7a cc 0a be 1e fa 13 3f fd e5 32 3f f9 e6 0d 3f
       -0.13554564 0.57803524 0.69882184 0.5543056
000030 09 8d c7 be a3 19 88 be bc 2a 04 3f c9 45 bf bd
       -0.3897479 -0.2658206 0.5162771 -0.09339482
000040 4b 09 8b 3f 4c 1a 4e 3f a5 37 a4 be c3 71 12 3f
       1.0862211 0.80508876 -0.32073703 0.57204837
000050 9e 6a 3e 3f 18 9a 7e be b4 88 2b bd 55 58 be bd
       0.74381435 -0.2486347 -0.041878417 -0.09294192
000060 9b e2 8e be
       -0.2790726

feature_layer.fc.4.running_mean f4 [25]
000000 5e d1 97 3f 2f 38 80 be 17 b7 d7 3e 58 72 45 3f
       1.1860769 -0.25042865 0.42131874 0.771276
000010 43 29 e0 3f 85 43 44 be 65 ac c4 bf e9 1b a2 bd
       1.7512592 -0.19166382 -1.5365111 -0.0791548
000020 24 42 cd 3e 82 59 0e bd e3 30 e6 3e 1d f6 8d 3f
       0.40089524 -0.03475333 0.44959173 1.1090733
000030 ee 55 d3 bf ed fc 13 bf 3f bc 9b bc e2 a6 d1 3c
       -1.6510599 -0.5780781 -0.019010661 0.025592271
000040 75 23 31 3e b5 f3 2b 3e ea ec 67 bf a0 d5 92 3f
       0.17298682 0.16792186 -0.9059588 1.1471443
000050 8d 9e 8e bd a2 84 df 3e 54 e4 b1 bc 8c 56 0d 3f
       -0.06963835 0.43655878 -0.02171532 0.55210185
000060 03 4f cf bf
       -1.6195987

feature_layer.fc.4.running_var f4 [25]
000000 46 a1 ad 3e 63 27 84 3e 8d 5a 85 3d 24 95 22 3e
       0.33912104 0.258113 0.06511412 0.15877205
000010 de c3 2a 3e f3 93 e1 3d c4 48 73 3d ce a3 5e 3e
       0.1667628 0.11014547 0.059395567 0.21742174
000020 89 c5 b9 3e a8 5c fd 3d 28 d3 8f 3e 81 ec cf 3d
       0.3628352 0.123711884 0.28090787 0.101525314
000030 6f ce 1f 3d d9 0f a5 3e 5a f3 dd 3d e8 15 f3 3d
       0.03901523 0.32238653 0.10837431 0.11869413
000040 44 da af 3d 54 fe 30 3e 4b 57 84 3e 7b 24 30 3e
       0.08586553 0.17284518 0.2584785 0.17201416
000050 19 18 09 3e 8d dc 39 3e c2 13 af 3b 99 18 52 3e
       0.13388099 0.1815054 0.0053429315 0.20517196
000060 ee 83 c5 3e
       0.38577217

feature_layer.fc.6.weight f4 [20, 25]
000000 c4 34 39 bf fb be 22 3e 10 ec 61 be 77 06 51 be
       -0.7234614 0.15893166 -0.22062707 -0.20412622
000010 2a a4 6e bd ef 3d 5b 3f 4d 6f dc 3e 77 62 99 3e
       -0.058262028 0.8564138 0.43053666 0.29957935
000020 0d 1c 97 be a2 f9 49 bf c8 2c 47 3d d3 42 14 bf
       -0.2951359 -0.78896534 0.04862669 -0.57914466
000030 c4 59 fa 3d ad c9 ba 3e 72 13 96 3d 4b ef 05 be
       0.12224153 0.3648199 0.07327928 -0.13079564
000040 dc 68 86 bd 84 c4 c2 3d d5 5c 9d 3e 23 fa f5 be
       -0.06562969 0.09510139 0.30734888 -0.48042402
000050 2c 99 47 3e e1 69 47 be 91 20 6e c0 84 6e bf 3e
       0.19492024 -0.19473983 -3.7207377 0.37389004
000060 09 07 02 3e 9e 5d 13 be e0 53 05 be c2 fa 0f bd
       0.12697996 -0.14391181 -0.13020277 -0.03515125
000070 4a bc f2 bd 55 51 bf 3d f2 fb 94 bc a5 7c b6 3e
       -0.118523195 0.09341685 -0.018186543 0.3564197
000080 79 b8 e2 3e e7 1e 44 be 64 24 36 be c9 18 89 be
       0.44281366 -0.19152413 -0.1778732 -0.26776722
000090 91 c0 08 be 54 14 9b 3d 89 27 a7 3d 93 7d 08 3e
       -0.13354708 0.07572237 0.081618376 0.13329153
0000a0 c7 0d 18 be 16 43 52 be 55 05 d9 3e c4 2d da 3e
       -0.14849006 -0.20533404 0.4238688 0.4261304
0000b0 4b 7e da be a6 41 26 3e 9f 39 a9 bd 01 86 b0 3f
       -0.4267448 0.1623598 -0.082629435 1.3790895
0000c0 bb b1 d1 3e da dc 40 3e e0 90 21 3d 1f f6 d9 be
       0.4095591 0.18834248 0.039444804 -0.42570588
0000d0 f7 a8 39 be c5 b5 0f 3f 2e 26 2b 3e b4 d0 02 bc
       -0.18130861 0.56136733 0.16713783 -0.007984329
0000e0 d6 cb 6e 3e 05 1b 1b 3f b7 06 16 bf b9 a5 52 3e
       0.23319945 0.60588104 -0.58603996 0.2057103
0000f0 4a 9e ee be 36 60 76 3e 9a f3 04 be 9f 41 c4 3e
       -0.4660514 0.24060139 -0.12983552 0.38331315
000100 5f 89 9e 3e 99 c2 a1 be 1e 48 ad 3e 77 d3 39 3f
       0.3096418 -0.3159378 0.33844084 0.72588295
000110 ee c5 19 bd 68 4c c5 3e 95 23 a3 3e 7f 75 5b be
       -0.037542276 0.38534856 0.31863084 -0.2143154
000120 19 5d d0 3f ea b2 87 3e fe cc 3d be 5f c7 5f 3f
       1.6278411 0.26503688 -0.1853523 0.8741359
000130 24 d3 29 be 86 26 7f 3d d4 2e 9c be 24 26 11 3b
       -0.1658445 0.0622926 -0.30504477 0.0022147978
000140 95 ec 78 bf e5 4e cd 3e 5f a5 49 bf 16 ee 78 3f
       -0.97235996 0.40099254 -0.7876796 0.9723829
000150 5d 64 89 3f 00 c6 4f 3f 52 82 59 3f 14 d6 3c bd
       1.0733753 0.811615 0.8496448 -0.0461026
000160 33 69 7f bf e8 04 71 bf 21 95 70 3f 83 bc 6d bf
       -0.99769896 -0.9414811 0.9397755 -0.9286577
000170 69 38 f8 3e c3 50 b5 3e 5f 17 07 be 85 e2 86 bf
       0.48480538 0.3541318 -0.13192509 -1.0537878
000180 1b 43 c5 3e 13 f8 48 3f e4 e2 1d bf 01 b2 38 bf
       0.3852776 0.7850353 -0.6167433 -0.7214661
000190 93 66 d9 be 1b 20 1e bf 5f 2e 66 3e 9c dc 7f 3f
       -0.4246107 -0.6176774 0.22478627 0.99946
0001a0 0c 12 2e be bd 0d 58 3f 5b 20 00 bf 67 16 d3 3e
       -0.16999072 0.8439596 -0.5004937 0.4122803
0001b0 9f 12 7a bf ba 64 b7 be 79 c4 5f bf 11 a7 3b be
       -0.97684664 -0.35819036 -0.8740917 -0.1832545
0001c0 96 1e 65 bf 9e 09 78 3f 94 28 ff 3e c2 fd 54 bf
       -0.89499795 0.96889675 0.49835646 -0.83199704
0001d0 03 78 61 3f db 68 ee bc 97 42 4d bf b7 2a b7 3d
       0.8807375 -0.029102733 -0.80179733 0.08943694
0001e0 76 72 3d 3f 9d 30 02 bf b8 fd 50 bf bc 31 f5 3d
       0.7400278 -0.5085543 -0.81637144 0.11972377
0001f0 46 6f a3 3e 4c 2c 78 3e a2 e3 b5 be ba a7 18 3f
       0.31920832 0.24235648 -0.35525233 0.5963093
000200 a6 ab 36 3f 29 ad d9 be ed a7 3e be 0a 32 39 bf
       0.71355665 -0.42514923 -0.18618746 -0.7234198
000210 f7 75 3c bc f6 bb 60 be d5 ac 05 3f 1d 20 c3 be
       -0.011502734 -0.21946701 0.52216846 -0.38110438
000220 8f 53 00 3f 83 e6 35 bf e2 b8 87 3e 19 42 c5 3d
       0.501275 -0.7105486 0.26508242 0.09631748
000230 ce a2 6c be ae 42 e2 3e 69 a4 64 bd 87 17 2a bf
       -0.2310898 0.44191498 -0.055820856 -0.6644215
000240 4c dd 36 3f 12 d1 38 3e 3d c5 2f bf 93 0c e2 3f
       0.7143142 0.18048504 -0.68660337 1.7660087
000250 28 22 e4 be 5c ee ac be 85 17 3a 3f 6f 23 41 bf
       -0.4455731 -0.33775604 0.7269214 -0.7544469
000260 5e 2f bb 3f 7b b3 fd 3e 8b 5f 38 bf e5 17 8f bc
       1.462383 0.49550995 -0.72020787 -0.017467448
000270 3c 5e d5 bf da 8c a3 bf ac d8 05 3f 80 83 24 bd
       -1.6669383 -1.277736 0.5228374 -0.04016447
000280 76 4b aa 3e 77 13 45 3f 4e 4a 52 bf fe 8d 8e 3e
       0.33260697 0.76982826 -0.8214463 0.27842706
000290 68 9f a6 bd f4 ea 92 be e1 3d 1a 3f ed 01 4a 3e
       -0.08135873 -0.2869488 0.6025067 0.19727297
0002a0 9f f8 bb bf be 87 d7 3e 04 d4 8f bd d3 28 0d bf
       -1.4685248 0.4209575 -0.07022861 -0.5514042
0002b0 2d 6c d2 bf a5 c2 2b bf 6f 67 78 bf 79 04 dc be
       -1.6439263 -0.6709388 -0.9703283 -0.42972162
0002c0 cc 63 d4 3e 7f ad f4 be 82 33 74 3e 10 66 53 3f
       0.4148239 -0.47788617 0.23847774 0.8257761
0002d0 55 64 1d bf b3 e8 1c 3f 20 c4 8a 3e 51 2a da be
       -0.6148122 0.6129257 0.27102757 -0.4261041
0002e0 71 01 16 bc 11 87 e4 3d 40 4e 8d 3e d7 26 15 3e
       -0.009155617 0.111585744 0.27598763 0.14565597
0002f0 25 05 9f 3d f1 32 08 3e e8 61 8a 3e 65 26 5b 3e
       0.07764653 0.13300683 0.27027822 0.21401365
000300 23 93 f3 bc a4 f6 1d 3c 7a 13 4b bd c4 0e 5c 3e
       -0.029733246 0.009641323 -0.04957912 0.21490008
000310 33 4d 1f 3f 4f 3b 64 bf 87 82 25 be 35 47 f8 3e
       0.6222717 -0.89153 -0.16163073 0.48491827
000320 83 9d 85 3e 7b e2 b6 3e a5 8b 93 3e f3 d8 ca be
       0.26096734 0.35719666 0.28817478 -0.39618644
000330 75 94 1a 3f 53 eb 42 be 0c ab c0 be 21 42 06 bf
       0.6038278 -0.19035082 -0.37630498 -0.52444655
000340 39 46 2f be 12 50 01 bf 5f a7 c3 3e 6a a4 01 bf
       -0.17116632 -0.505128 0.38213632 -0.506415
000350 71 01 d8 3e ba ed 56 bd 1a ed 0c 3f eb 34 0f bf
       0.421886 -0.052472807 0.5504929 -0.5594012
000360 6f d6 3f 3f 12 36 9e bf 84 78 f2 be 2e b7 03 bf
       0.74936575 -1.2360251 -0.4735757 -0.51451385
000370 23 92 18 3f 2e de fb 3e 73 02 8c bf 17 35 9c 3e
       0.59597987 0.49192947 -1.0938247 0.30509254
000380 c5 8d f7 3e 08 f5 d6 bd c7 43 40 3f 8b fd ce be
       0.4835035 -0.10495955 0.7510342 -0.40427813
000390 0e 24 8e be 68 a6 32 3f 4c e7 42 bf 7d 3e 88 3f
       -0.27761883 0.69785166 -0.7613418 1.064407
0003a0 8a b9 16 3e 07 29 ac bd c7 29 9b 3d 4a bf 1a 3f
       0.14719215 -0.08406263 0.07576328 0.60448134
0003b0 44 b2 aa bd 90 4f 67 3f f6 7d bf be 60 9e 03 3e
       -0.08334783 0.9035578 -0.37400788 0.12853384
0003c0 be 30 45 3e f0 62 30 be 58 7d 56 3e 13 97 51 3f
       0.19256875 -0.17225242 0.20946252 0.81871146
0003d0 75 83 de bd 19 db 40 3e d7 44 17 3f 1d a3 7e bf
       -0.10864917 0.18833579 0.59089416 -0.9946764
0003e0 6b f8 70 3e 98 9a 82 3e f5 09 87 be 5d 22 10 bf
       0.23532264 0.2550857 -0.26374784 -0.56302434
0003f0 3e 82 a4 3e f2 2b d0 3d 12 2f 64 bf 3c 39 d7 3e
       0.32130617 0.10164632 -0.89134324 0.42035854

feature_layer.fc.6.bias f4 [20]
000000 da 77 c2 be 22 be 29 be e9 32 fc 3d c1 2f 7f 3e
       -0.37982064 -0.16576436 0.12314398 0.2492056
000010 a6 03 39 3d 2b 7f 0e 3f e6 83 d4 3d 0d fe 98 3e
       0.045169495 0.5566279 0.1037672 0.29881325
000020 74 15 8d 3e de e7 25 3e 9d 04 bb be ba 60 5e be
       0.2755543 0.16201732 -0.36526957 -0.21716586
000030 9b 4e 23 3e 29 fa 95 3c 55 d9 34 bf 00 00 00 00
       0.15947954 0.018307762 -0.7064412 0.0
000040 29 bd 79 3e 92 2a 47 be 86 4a fa bc db 72 c1 3f
       0.24388565 -0.19449833 -0.030553114 1.5113176

forest.trees.0.pi f4 [8, 2]
000000 17 10 f3 3f f6 09 f3 bf 2b 18 fa be 3b 92 00 3f
       1.8989285 -1.8987415 -0.48846564 0.5022313
000010 10 8d ef be c9 27 f0 3e 5d aa 44 40 60 aa 44 c0
       -0.4678731 0.46905354 3.0728981 -3.0728989
000020 ff 23 77 3f 02 24 77 bf ad 41 26 c0 af 41 26 40
       0.965393 -0.9653932 -2.5977585 2.597759
000030 87 80 dc bf 9f 83 dc 3f a2 d1 c7 3f 9a d1 c7 bf
       -1.7226723 1.7227668 1.561085 -1.561084

forest.trees.0.decision.linear1.weight f4 [8, 10]
000000 9c e4 d5 00 3e 11 50 00 ff 90 77 00 be a2 7a 80
       1.964297e-38 7.353025e-39 1.0980439e-38 -1.1262311e-38
000010 e6 e6 97 01 b8 99 5b 81 4c a6 64 81 c0 7f c3 80
       5.579996e-38 -4.0334235e-38 -4.1996298e-38 -1.795375e-38
000020 e6 6d 50 00 f6 24 19 01 12 d1 d2 be 89 b0 46 3f
       7.386264e-39 2.812818e-38 -0.41175133 0.7761312
000030 dc 98 ac 3e f2 03 aa 3f 68 6b d3 bf 00 fc c6 bf
       0.33710372 1.3282454 -1.6517153 -1.5545654
000040 21 b6 17 40 c9 d4 c9 3e db 4f 1c 3f 61 cb 82 3f
       2.3704913 0.39420155 0.6105935 1.0218316
000050 77 22 95 bf 23 34 87 bc fd 64 e0 be af bf a4 bc
       -1.1651143 -0.016504353 -0.43827048 -0.020110933
000060 65 aa 22 3e c6 c5 9e bf ab 8e 4c 3d 73 30 04 40
       0.15885313 -1.2404106 0.049940746 2.065457
000070 0e d5 24 bf ea 7f de bd 1a c9 21 bf b4 72 53 bf
       -0.64387596 -0.108642414 -0.6319748 -0.825969
000080 a7 12 4b bf c0 2c cb bf 05 2c bb 3f b5 b9 ff 3e
       -0.79325336 -1.5873032 1.4622809 0.4994637
000090 9e db 6d be 49 66 31 bf 1a 71 6d be 95 31 86 be
       -0.23228309 -0.692967 -0.23187676 -0.26209703
0000a0 78 17 75 3f 30 fc 93 3e 9c db 17 3f 95 5a 35 3e
       0.95738935 0.2890334 0.5931947 0.17710336
0000b0 8d d6 14 bd 72 5a 86 3e 9c 4a 45 bf 85 6f 88 3e
       -0.036337424 0.2624088 -0.7706697 0.26647583
0000c0 4b 21 93 bd 2e ce 5f bf 02 8d 8b bf 5f ca e8 3c
       -0.071840845 -0.8742398 -1.0902407 0.02841681
0000d0 e1 a4 3f bf 7d 3d 14 be 67 62 2c 3f 11 7e 82 bf
       -0.7486096 -0.14476581 0.6733765 -1.0194722
0000e0 8f 73 c2 bc 3c 0a e2 3e 68 f5 be be a5 c9 41 bf
       -0.023736743 0.44148433 -0.37296605 -0.7569831
0000f0 81 c7 46 be e7 6a fd 3f 12 8c c2 bd 75 1a 02 3f
       -0.19412042 1.9798249 -0.094993725 0.5082162
000100 b1 0a b3 bf c3 d1 ee 3b 64 39 a2 3f e3 b0 76 be
       -1.3987638 0.007288189 1.2673764 -0.24090914
000110 37 9a a9 3e 25 ad d9 3e 65 91 56 bf e3 17 e3 3f
       0.3312547 0.4251491 -0.83815604 1.7741665
000120 1c 03 63 3d 67 31 6e 3f b4 ed 84 bf 60 38 63 bf
       0.055422887 0.9304413 -1.0385041 -0.88757896
000130 e7 52 bb 3f a4 3b 63 3f e3 02 7d 3e 5c 6b 0f 3f
       1.4634675 0.8876288 0.24708132 0.5602319

forest.trees.0.decision.linear1.bias f4 [8]
000000 88 22 7f 01 b5 f0 c0 be 50 75 26 be 87 0f a6 be
       4.6860878e-38 -0.37683645 -0.16255689 -0.3243372
000010 c9 4b 8e 3e 5c af f3 3d 00 bc a5 3e c1 7b 08 3f
       0.27792194 0.118986815 0.32369995 0.53313833

forest.trees.1.pi f4 [8, 2]
000000 8e 96 1c 3d 98 96 1c bd b0 10 27 c0 b2 10 27 40
       0.038229518 -0.038229555 -2.6103935 2.610394
000010 67 62 d8 3f 65 62 d8 bf 2c 10 96 bf 68 11 96 3f
       1.690503 -1.6905028 -1.1723685 1.1724062
000020 0f ec ae bf 8c 24 af 3f df 57 a4 3f eb 55 a4 bf
       -1.3665789 1.3683028 1.2839316 -1.283872
000030 37 f5 9d be db 2a ab 3e 23 d6 45 40 52 d5 45 c0
       -0.30851147 0.33431134 3.0911949 -3.091145

forest.trees.1.decision.linear1.weight f4 [8, 10]
000000 77 f9 0f 81 a0 1b 7f 80 ca 12 a4 81 a0 96 14 80
       -2.6443934e-38 -1.1673018e-38 -6.0271046e-38 -1.890744e-39
000010 cc 5d a7 00 96 d8 89 81 79 22 18 80 d9 3e 24 80
       1.5370176e-38 -5.063664e-38 -2.216418e-39 -3.328623e-39
000020 80 ab b0 81 d6 91 81 01 cd 29 14 3f 53 ff 8b 3f
       -6.489828e-38 4.759638e-38 0.5787628 1.0937294
000030 6f 85 44 be 10 68 bb bf 88 5b 76 bf 59 e6 5f 3f
       -0.19191526 -1.4641132 -0.96233416 0.8746086
000040 5c 14 0f 3f 83 a4 24 bf 3b fe e9 be 5c 2d c2 bf
       0.5589044 -0.64313525 -0.45701775 -1.5170093
000050 12 d6 3e 3f 96 7b 3a 3f d5 48 3b be f3 6a 3a 3f
       0.74545395 0.7284483 -0.18289502 0.7281944
000060 8a a7 a7 3d 12 af 03 3f e1 0f 1f 3f 7e f6 74 be
       0.081862524 0.5143901 0.62133604 -0.23922154
000070 31 e1 9f 3f b7 4e 0f bf 85 dc 21 3e 7d ee a5 3f
       1.2490598 -0.55979484 0.15806778 1.2963406
000080 ac c7 18 be b8 6a 18 3f 30 79 0e c0 8e 76 5e 3e
       -0.14919919 0.5953784 -2.2261467 0.21724913
000090 66 cf c6 bd 08 e2 01 3f fb 0b 2d 3f 0c 9c a3 bf
       -0.09707527 0.5073552 0.67596406 -1.2781997
0000a0 45 37 03 bf 90 7d b6 3e 28 e5 c2 bd ca 7c 99 3e
       -0.5125621 0.35642672 -0.09516364 0.2997802
0000b0 e9 ab 28 be 31 19 82 be a6 1a 36 bf 73 51 0c 3f
       -0.16471829 -0.25409845 -0.7113441 0.5481178
0000c0 48 60 b1 3d c7 ac 03 3e 09 16 22 bf ad 06 4b 3f
       0.08660942 0.12858878 -0.6331487 0.7930706
0000d0 ef 61 d4 bf f1 86 86 bf 7d 96 8d bd 65 20 6d 3e
       -1.6592387 -1.0509931 -0.06913469 0.23156889
0000e0 61 10 5c bf 8d b4 8e 3f 90 23 92 bf 10 de 13 be
       -0.8596249 1.114885 -1.1417103 -0.14440179
0000f0 3b a8 f4 bd 43 13 98 3e 31 9f 97 bf b1 91 85 bf
       -0.1194615 0.29702196 -1.1845456 -1.0435086
000100 44 04 b7 3e ab af a1 be 14 3a 26 bd 59 62 02 3f
       0.35745442 -0.31579337 -0.04058273 0.50931317
000110 5a 71 0e c0 83 5e db bd 6e 4c b5 3e 56 1a 24 3f
       -2.2256684 -0.10711386 0.35409874 0.64102685
000120 a1 fc b4 3f 45 27 d2 bf de 33 c5 be 33 c3 c6 3f
       1.4139596 -1.6418234 -0.38516134 1.552832
000130 6d f9 7f be 63 f9 ca bf 56 0e 8d 3e c6 7f ce 3d
       -0.24997492 -1.5857357 0.2755 0.100829646

forest.trees.1.decision.linear1.bias f4 [8]
000000 41 f9 16 01 b8 a7 b0 be 42 d9 16 3e 2b 02 76 be
       2.772948e-38 -0.3450296 0.14731315 -0.24024265
000010 53 c3 77 be b2 6c b8 be f9 a7 ae 3d 44 e9 52 bd
       -0.24195604 -0.36020428 0.08528132 -0.05149199

forest.trees.2.pi f4 [8, 2]
000000 7e 0f d8 3f 0c 0e d8 bf e1 c0 64 bf 14 c1 64 3f
       1.6879728 -1.6879287 -0.8935681 0.89357114
000010 c5 8c 26 c0 d5 8c 26 40 61 1d b0 bd 65 1d b0 3d
       -2.602342 2.6023457 -0.085993536 0.085993566
000020 a7 ce 44 40 a7 ce 44 c0 ee 54 48 bf f9 54 48 3f
       3.075113 -3.075113 -0.7825459 0.7825466
000030 a7 3e 8a bf 1c 9d 8c 3f 9b 98 9f 3f 72 10 9e bf
       -1.080037 1.0985446 1.2468446 -1.2348769

forest.trees.2.decision.linear1.weight f4 [8, 10]
000000 28 96 41 01 91 08 0c 80 cc 80 80 01 d0 ce 14 80
       3.5556233e-38 -1.105099e-39 4.720459e-38 -1.9109e-39
000010 7c 81 64 00 c8 a0 da 00 84 34 78 00 05 61 91 00
       9.23e-39 2.0077816e-38 1.1039099e-38 1.3350951e-38
000020 36 00 1f 01 08 bd 5d 01 11 75 65 bf ee 76 21 be
       2.920384e-38 4.0726913e-38 -0.89631754 -0.15768024
000030 c7 b7 39 bf eb 94 31 bf a8 f1 1d bf 99 9d 67 3f
       -0.72546047 -0.69367856 -0.61696863 0.9047485
000040 4e 4c e7 3e d2 18 30 bf 5e a4 ca bf 96 aa d9 3e
       0.45175403 -0.6878787 -1.5831411 0.4251296
000050 d9 04 b9 3e 77 a8 84 bf ec 27 46 3e 99 47 39 3f
       0.3613651 -1.0363911 0.19351166 0.72374874
000060 08 72 a2 3f c4 d4 07 bf f3 10 a7 bf 6e 89 a4 bf
       1.269105 -0.5305903 -1.3052047 -1.285444
000070 40 da 9c be cd b1 8d 3e 3e b4 8b 3e 33 38 de 3f
       -0.30635262 0.27674714 0.2728595 1.7360901
000080 90 a6 40 3f eb c4 5d 3c 8c cb ed be 7f f5 2f 3e
       0.75254154 0.013535718 -0.46444356 0.17183493
000090 c1 02 2b 3d ca 67 01 40 5c ca 5c 3f 0b 0f 84 bf
       0.041750673 2.0219598 0.86246276 -1.0317091
0000a0 e7 29 10 3f 89 2e 55 bf 9b 3d 96 bf cc 6c d3 be
       0.5631394 -0.8327413 -1.173755 -0.41293943
0000b0 89 af fc 3e 43 da 37 bf 17 40 b7 3e 91 61 13 bd
       0.49352673 -0.71817416 0.35791084 -0.03598172
0000c0 d0 07 43 bf f0 0a 54 3e 6b 3f af bd a8 1c 32 3c
       -0.76183796 0.20707297 -0.08557018 0.01087109
0000d0 8e 65 11 be 4e fa 29 bf 63 c4 01 be 99 b1 15 3f
       -0.14198896 -0.6639756 -0.12672572 0.5847412
0000e0 7f 79 2f 3f ff 83 db 3e fd e9 64 be 5c c7 99 3d
       0.68544763 0.42874143 -0.22354884 0.07508728
0000f0 c7 d6 dd 3e de 06 c3 3e bf 00 a6 3f 8f 68 17 be
       0.43327925 0.38091177 1.2968978 -0.1478598
000100 55 9a 17 3e db 90 e7 be f3 c9 84 bf dc ed 0f 3f
       0.14804967 -0.45227703 -1.037413 0.5622232
000110 33 ba 60 3f e5 bb 8a bf 8b ca 8f bf 67 3d 3e 3f
       0.8778412 -1.0838591 -1.1233686 0.7431244
000120 e2 6a bf be fd 30 2c 3f ef bb 34 bf 87 77 ac be
       -0.37386233 0.6726225 -0.70599264 -0.33684942
000130 67 56 c5 bc 6b bd 17 bf ac a7 08 3f d6 b3 82 3e
       -0.024089051 -0.59273404 0.53380847 0.2552783

forest.trees.2.decision.linear1.bias f4 [8]
000000 69 dd f2 00 44 2d 27 be 55 53 6c 3d de 11 62 be
       2.2303617e-38 -0.16325861 0.05769666 -0.22077128
000010 46 13 93 3c e2 a6 6d 3e 0b 94 c2 bd e9 8a 47 be
       0.017953526 0.23208192 -0.09500893 -0.19486584

forest.trees.3.pi f4 [8, 2]
000000 81 34 0b 3f 0b 33 0b bf 0d 35 0b 3f 9a 32 0b bf
       0.5437699 -0.5437476 0.54377824 -0.54374087
000010 e3 8c d3 3e d5 8c d3 be 4d eb 26 c0 48 eb 26 40
       0.41318426 -0.41318384 -2.6081116 2.6081104
000020 5c c8 44 40 fc c7 44 c0 00 d8 e7 bd a7 e2 e7 3d
       3.074729 -3.074706 -0.113204956 0.113225274
000030 a4 af 7c bf e4 fe 7f 3f 44 b3 f3 3f 91 b1 f3 bf
       -0.98705506 0.9999831 1.9039083 -1.9038564

forest.trees.3.decision.linear1.weight f4 [8, 10]
000000 46 60 08 80 af 9d 42 00 91 f8 98 01 0f 8c 94 01
       -7.6922e-40 6.117709e-39 5.6192657e-38 5.456759e-38
000010 b0 5b 14 00 12 13 57 01 1a f0 5c 81 3c 92 46 81
       1.869601e-39 3.9502946e-38 -4.0579883e-38 -3.6471774e-38
000020 19 1f 85 00 d2 4e 23 81 5c 0d b3 bb b0 e1 69 be
       1.2225277e-38 -2.9994923e-38 -0.005464239 -0.22839999
000030 e9 30 f5 bf 81 5c 5f bf af 35 a1 be 1e a6 8c 3f
       -1.9155551 -0.87250525 -0.3148627 1.0988195
000040 9f be 7c be 15 cc 0b 3f 7c 2e eb 3f 20 b6 0b 3f
       -0.24682091 0.5460828 1.8373561 0.54574776
000050 d2 da 51 bf 73 59 fb 3e d0 2a dc 3e 04 38 4e bf
       -0.8197452 0.49091682 0.43001413 -0.80554223
000060 a4 87 61 3f 57 db 4f bf 99 92 18 3f 48 74 a3 3e
       0.88097596 -0.8119406 0.5959869 0.31924653
000070 8a cf 95 bf 62 e1 cc 3e a8 66 98 bf 91 9f 77 3f
       -1.1703961 0.40015703 -1.1906328 0.96727854
000080 ff 0d 10 3e 42 64 d4 bf 51 97 45 3f 7d 31 12 be
       0.14067839 -1.6593096 0.77184016 -0.14276691
000090 e2 fd ac 3d 47 3b 5b 3d 2a 9f ea 3a 1b 21 a6 3d
       0.08446862 0.05352333 0.0017900218 0.08111783
0000a0 c1 0c 0c 37 e4 f9 03 36 b0 f7 ec 36 a6 5e 6e b6
       8.34762e-06 1.9665977e-06 7.0621827e-06 -3.5519856e-06
0000b0 e2 d6 5d b6 a0 0f f5 b6 b2 88 db b6 18 5f 21 b6
       -3.3056644e-06 -7.303388e-06 -6.542622e-06 -2.4046221e-06
0000c0 8c b1 1d 37 ee e6 5b b6 65 d8 92 3e c7 fb b5 3e
       9.399268e-06 -3.2767962e-06 0.2868072 0.35543653
0000d0 41 d7 cd 3f 4e f8 07 bf c7 69 19 3f a9 48 a8 be
       1.6081315 -0.5311326 0.5992703 -0.32867935
0000e0 92 2f b1 be 5e cc 0d bf 97 f5 6b bf 5b 26 d5 be
       -0.34606606 -0.55389965 -0.92171615 -0.41630825
0000f0 a3 16 b8 be c9 09 0c 3f cf 54 53 3e 78 87 71 bf
       -0.3595477 0.5470243 0.2063782 -0.94347334
000100 1e 2a e5 3e d4 98 9c be ff 51 99 3e 8a 32 c7 3c
       0.44758695 -0.3058535 0.2994537 0.024316091
000110 ac ae b4 be 4f 9d 9d 3d 80 70 b7 3f f5 46 5c 3f
       -0.35289514 0.0769602 1.4331207 0.8604577
000120 fe 6f a0 3f 21 58 14 bf 67 54 65 bf b3 f1 9f bd
       1.2534177 -0.57946974 -0.8958191 -0.07809772
000130 1d 88 a7 bf ae aa a4 bf df fd c0 3e b4 a5 30 bf
       -1.3088413 -1.2864587 0.37693688 -0.6900284

forest.trees.3.decision.linear1.bias f4 [8]
000000 5b 78 39 81 87 51 ba be 0e e9 df be e8 e3 18 be
       -3.4065484e-38 -0.36390325 -0.43732494 -0.1493069
000010 ef b9 a2 b6 95 1b 0b 3e 58 a2 7c be c4 57 6a 3b
       -4.8496217e-06 0.1358474 -0.24671304 0.0035757879

forest.trees.4.pi f4 [8, 2]
000000 a8 0c c6 3c ab 0c c6 bc aa 0c c6 3c af 0c c6 bc
       0.024175957 -0.024175962 0.02417596 -0.02417597
000010 69 a0 25 c0 63 a0 25 40 a5 ae 94 3f a9 ae 94 bf
       -2.5879157 2.5879142 1.1615797 -1.1615802
000020 85 8a ba 3f 76 8a ba bf 28 eb c6 bf a4 ff c6 3f
       1.4573523 -1.4573505 -1.5540514 1.5546765
000030 b4 1c 46 40 24 1c 46 c0 11 d0 82 bf fc 47 83 3f
       3.095502 -3.0954676 -1.0219747 1.0256343

forest.trees.4.decision.linear1.weight f4 [8, 10]
000000 90 00 f9 80 ca 6c 10 01 57 5b 7a 01 b6 e7 72 80
       -2.286724e-38 2.6526675e-38 4.598328e-38 -1.0552369e-38
000010 26 74 e8 00 5f ba fe 00 27 77 77 01 35 29 26 01
       2.1347501e-38 2.3393073e-38 4.5452223e-38 3.051895e-38
000020 81 9a c2 80 b0 95 51 01 4a f8 8b be 87 15 be bd
       -1.7871512e-38 3.8494633e-38 -0.27337867 -0.0928145
000030 8d 27 e6 bd 00 e8 af 3e f7 23 44 bf 0f e2 5d 3f
       -0.112380125 0.3435669 -0.7661738 0.86673063
000040 c5 a5 2a bf 9e 2a a7 3f 01 dd bc be 15 14 ab 3e
       -0.66659194 1.3059881 -0.36887363 0.3341376
000050 b0 41 e0 3d d6 7d 62 bd af 16 c3 3d 72 d9 ed 3e
       0.10950029 -0.055295788 0.09525811 0.4645496
000060 24 11 81 be b9 f5 8e be 6f 90 17 3e c2 32 a3 be
       -0.2520839 -0.27921847 0.14801191 -0.31874663
000070 1e ee 17 3f 29 cf b5 be b8 4b d4 be b2 cf 90 bd
       0.59347713 -0.35509613 -0.4146402 -0.07070865
000080 1d b9 8c bf cd 75 ed bf d7 39 3e bf 2e 0e 4a 3e
       -1.0993992 -1.8551575 -0.74307007 0.19731972
000090 67 78 0b bf 62 61 99 3f cb 13 3e bf 10 1b 4e 3d
       -0.54480594 1.1982844 -0.7424895 0.050318778
0000a0 1e 91 b1 b1 6f 1b 54 31 f0 0f 7c b1 84 0a ff af
       -5.167876e-09 3.0865654e-09 -3.6679886e-09 -4.6391702e-10
0000b0 8f 33 da 31 b6 03 e9 ae cf f5 a3 30 87 48 43 b1
       6.3504966e-09 -1.05962725e-10 1.1929674e-09 -2.8417462e-09
0000c0 9c a9 ee b1 ad c8 36 32 92 85 56 3e a9 42 6b be
       -6.945994e-09 1.0639423e-08 0.2094939 -0.22974648
0000d0 23 2f f3 be 18 27 93 bf 58 3e e2 bf 6f 47 02 3b
       -0.474969 -1.1496305 -1.7675276 0.0019879004
0000e0 1a 55 1f bf ed 10 ba 3f f0 b2 59 be ab b8 c0 be
       -0.6223923 1.4536415 -0.21259665 -0.3764089
0000f0 dc cb 87 bf 1e 57 26 3f a5 69 5b bb 89 54 b2 bf
       -1.0609088 0.6497668 -0.0033479717 -1.3932048
000100 c2 76 aa bf 35 60 c6 be 25 98 32 3f 8c a9 25 bf
       -1.3317492 -0.38745275 0.69763404 -0.64711833
000110 41 44 37 3f 02 2d db be 60 e3 13 bf ce 3c ba 3f
       0.7158852 -0.42807776 -0.5776882 1.4549806
000120 34 83 25 3f b7 07 6c 3f 80 06 d6 3e 65 1f 34 bf
       0.64653325 0.9219927 0.41801834 -0.70360404
000130 3f cb 62 3f ab 8c e8 be 05 3b 89 bf 01 be ab 3e
       0.8859138 -0.4541982 -1.0721136 0.335434

forest.trees.4.decision.linear1.bias f4 [8]
000000 e8 c7 48 00 28 ab 17 bf 0b 25 9f be 49 7f 12 3e
       6.683869e-39 -0.5924554 -0.3108295 0.14306368
000010 2d f0 72 31 18 13 97 be 20 2d 85 39 88 8f 5b 3e
       3.535216e-09 -0.29506755 0.00025401358 0.21441472
