model_v2/model.pt (torch, 37391 bytes, 39 tensors)

feature_layer.num_emb_layer.0.weight f4 [25, 6]
0	0x3d45ee89	0.048323188
1	0x3ee64960	0.44977856
2	0xbde0d4c6	-0.10978083
3	0x3ea93292	0.33046395
4	0xbe64547d	-0.22297855
5	0x3d2f4ecc	0.042799756
6	0xbbee3d23	-0.0072704717
7	0xbdb8858c	-0.09009847
8	0xb6039d19	-1.9611964e-06
9	0x3e46251f	0.19350098
10	0x2ad254bf	3.7362298e-13
11	0xbd42c326	-0.04754939
12	0x3e5673d7	0.20942627
13	0x3e93424c	0.28761518
14	0xbbd4577f	-0.006480157
15	0xbe6340f2	-0.22192743
16	0xbe864901	-0.26227573
17	0xbe44f1f2	-0.1923292
18	0x013aa3eb	3.428041e-38
19	0xb91c3e2b	-0.00014900479
20	0x019b6972	5.7089314e-38
21	0x018b693c	5.121154e-38
22	0x3006c6bc	4.9031335e-10
23	0x277a6966	3.4751606e-15
24	0xa0a355d5	-2.7670073e-19
25	0xa8468fc5	-1.1022383e-14
26	0x9f555322	-4.517327e-20
27	0x242a2b83	3.689973e-17
28	0xaa01c37b	-1.1525323e-13
29	0x26eb5765	1.6330089e-15
30	0x014bf022	3.7457498e-38
31	0xada975cb	-1.9265386e-11
32	0x8fd0c51c	-2.0586307e-29
33	0x9a10661c	-2.9860985e-23
34	0x800242aa	-2.07586e-40
35	0xaf265283	-1.5126926e-10
36	0x2c5c9c4f	3.135065e-12
37	0xbe367638	-0.17818534
38	0x2ceb470d	6.68699e-12
39	0x3e0bed1b	0.13664667
40	0xa87b9758	-1.3966116e-14
41	0x15aabecd	6.8963484e-26
42	0xbc91fd08	-0.01782085
43	0x3e44218c	0.19153422
44	0x3d5f99c6	0.05459001
45	0xbdc19c47	-0.09453636
46	0x3e8a1cc4	0.2697507
47	0x3eac343c	0.33633602
48	0x018feb66	5.2867684e-38
49	0xaff58816	-4.4661935e-10
50	0x0131d21c	3.2660512e-38
51	0xae9f71bb	-7.2506855e-11
52	0x0086e850	1.2389295e-38
53	0x013187f2	3.2607302e-38
54	0x8f5fc604	-1.1032885e-29
55	0x94910972	-1.4644984e-26
56	0x8f9495b2	-1.4651587e-29
57	0x81271fd0	-3.069588e-38
58	0x93516830	-2.6430877e-27
59	0x103305a3	3.5305868e-29
60	0xb7000638	-7.630842e-06
61	0xbe1cdf4f	-0.1531956
62	0xae4d47a3	-4.667523e-11
63	0x3e2af431	0.16694714
64	0xa2cc8a3f	-5.5440685e-18
65	0x37baa016	2.2247474e-05
66	0x3e726123	0.23669867
67	0x3ed42f63	0.41442403
68	0xbcad6ee5	-0.021171043
69	0x3e1cf869	0.15329136
70	0x3dee691a	0.1164114
71	0x3e2ec3d8	0.17066896
72	0xbcde6963	-0.027149862
73	0x3afbc73f	0.001920916
74	0x398549f7	0.00025422845
75	0xbebd4b64	-0.3697158
76	0x3e9b8309	0.3037341
77	0x3c9a0776	0.018802386
78	0x9efbea01	-2.667244e-20
79	0xa22bb322	-2.3269654e-18
80	0x9e252039	-8.741691e-21
81	0x241d1d40	3.4068724e-17
82	0x9ad3043c	-8.7274396e-23
83	0x9e9e38e2	-1.6752427e-20
84	0x3dbd0250	0.09228957
85	0x3e8990cf	0.26868293
86	0xbb39022e	-0.002823006
87	0xbe6424c0	-0.22279644
88	0x3d90e8c4	0.070756465
89	0x3e659fb0	0.22424197
90	0xbd9a0c90	-0.07521927
91	0x3e297cc6	0.16551504
92	0xbe8b52ec	-0.27211702
93	0xbea44905	-0.3208696
94	0x3e4561bf	0.19275568
95	0x3e932bbe	0.2874431
96	0x3decf5c2	0.11570312
97	0x3e19719e	0.14984748
98	0x3e1e0e56	0.15435156
99	0x3e0f04e2	0.13966706
100	0x3e9a7173	0.3016468
101	0x3e60284a	0.21890369
102	0x3e6200f5	0.22070678
103	0x3db0e496	0.08637349
104	0x3e3abfdc	0.18237251
105	0xbe8e9c14	-0.27853453
106	0x3e4acd45	0.19804867
107	0x3e5d534e	0.2161381
108	0x2dc5fefa	2.250954e-11
109	0xbe5ba7a4	-0.21450669
110	0xae174aa2	-3.4399712e-11
111	0x3e88e93a	0.26740438
112	0xa407b154	-2.942366e-17
113	0x2da456b0	1.8683138e-11
114	0x3e75ad37	0.23991857
115	0x3d9ec46b	0.077523075
116	0xbc425495	-0.011860986
117	0x3d9f5181	0.077792175
118	0xbe85ee75	-0.2615849
119	0x3e877104	0.26453412
120	0x25579f80	1.8702318e-16
121	0xab4ec3f9	-7.345787e-13
122	0xae25c5e5	-3.7692422e-11
123	0x811ef156	-2.9193167e-38
124	0xac58b001	-3.0793148e-12
125	0x28926820	1.6254413e-14
126	0x01a0968f	5.899076e-38
127	0x822af538	-1.2560002e-37
128	0xae3678ae	-4.1489194e-11
129	0x8f520668	-1.0355033e-29
130	0x012096b5	2.9495486e-38
131	0x8117066c	-2.7738927e-38
132	0xbeaa26dd	-0.33232775
133	0x3bd38d72	0.0064560706
134	0x3dac8f97	0.08425825
135	0xbedde57a	-0.4333914
136	0x3ea07ff9	0.31347635
137	0xbe07c391	-0.13258196
138	0xbe7327fc	-0.23745722
139	0x3e16e2cf	0.14734958
140	0xbd9fec66	-0.07808761
141	0x3e509956	0.20370993
142	0x3ea454cb	0.32095942
143	0x3e20b061	0.15692283
144	0x22970003	4.0928644e-18
145	0xa914db1e	-3.3052655e-14
146	0x221468dd	2.0113254e-18
147	0xa7bca780	-5.2362086e-15
148	0xaf7cbe3e	-2.2986854e-10
149	0x2abe011b	3.3751547e-13

feature_layer.num_emb_layer.0.bias f4 [25]
0	0x3999aaa7	0.0002930958
1	0xaea22d60	-7.374967e-11
2	0xb9c2fa43	-0.00037189023
3	0x81bf4310	-7.025855e-38
4	0x1ed0c2ae	2.2103374e-20
5	0x00000000	0.0
6	0x811eefd0	-2.9192074e-38
7	0x3b0ff68f	0.0021967029
8	0x00000000	0.0
9	0x0e9498d8	3.6632e-30
10	0x2ab84957	3.2735856e-13
11	0xb884d46a	-6.333816e-05
12	0x34649a0e	2.12902e-07
13	0x9c8ec618	-9.447978e-22
14	0xb80c9b69	-3.3523338e-05
15	0xb867605c	-5.5164433e-05
16	0xb9324390	-0.00017000572
17	0x3985f989	0.00025553655
18	0xa99f916c	-7.086245e-14
19	0xb686689a	-4.0056884e-06
20	0x01814540	4.7486485e-38
21	0x00000000	0.0
22	0xb97e54a0	-0.00024254853
23	0x39855e66	0.0002543807
24	0x20b664e2	3.0898758e-19

feature_layer.num_emb_layer.2.weight f4 [10, 25]
0	0x3e92b944	0.2865697
1	0xbdd0bcef	-0.10192286
2	0x3e27881c	0.16360515
3	0xa71c3d0b	-2.168244e-15
4	0x000e6f7b	1.325689e-39
5	0x81926d61	-5.378888e-38
6	0x3c33d62e	0.010976357
7	0xbed0f9dc	-0.40815628
8	0x2cb747d5	5.209148e-12
9	0x010af701	2.5523814e-38
10	0xbe9a2733	-0.30108032
11	0xbed4668d	-0.4148449
12	0xbe07918a	-0.13239112
13	0x129edaa2	1.0025099e-27
14	0xbe64247a	-0.2227954
15	0x3d4a6b32	0.049418636
16	0x3d1ba0b4	0.037995055
17	0x3e1f3333	0.15546875
18	0x3d0fb05f	0.03508031
19	0x3e0d973d	0.13827224
20	0x800a640a	-9.54242e-40
21	0x8125523c	-3.0364714e-38
22	0xbe35e68e	-0.17763731
23	0x3e008a39	0.12552728
24	0x01567bb4	3.9394345e-38
25	0x3ed4cddc	0.41563308
26	0x3ea651fe	0.3248443
27	0x3ec1a524	0.37821305
28	0x084b51c6	6.1184215e-34
29	0x1b531a88	1.7462084e-22
30	0x88a44738	-9.887134e-34
31	0xbe1ae2bb	-0.15125553
32	0xbe9bae18	-0.3040626
33	0x23645829	1.2378573e-17
34	0x81b8d105	-6.7890853e-38
35	0xbdd9d3f9	-0.10636134
36	0xbcfbf187	-0.030754818
37	0xbd93c34d	-0.07214985
38	0xa0b3817b	-3.0409462e-19
39	0x3c19d978	0.0093902275
40	0xbe99edec	-0.30064332
41	0x3e5b09ee	0.21390507
42	0xbe664eac	-0.22490948
43	0x3dfdb3f8	0.12387842
44	0xbec3d207	-0.38246176
45	0x00623446	9.018631e-39
46	0x0101c714	2.383639e-38
47	0xbe5e6a7b	-0.21720307
48	0xbd500aa9	-0.050791416
49	0xa1f5c7d7	-1.6654743e-18
50	0xbe10c6e3	-0.1413837
51	0x38f039e6	0.00011454876
52	0x3e2ee6b7	0.17080198
53	0xa126f21b	-5.656341e-19
54	0x2d164131	8.540988e-12
55	0x01a07d1b	5.8954235e-38
56	0x13f1600d	6.0931666e-27
57	0x3e3b0c5f	0.18266438
58	0x005f6557	8.760726e-39
59	0x0b0042ae	2.4702068e-32
60	0x81a8f4b3	-6.206458e-38
61	0xbd78196e	-0.060571127
62	0xbc464a3b	-0.012102659
63	0x019448ce	5.4471083e-38
64	0xbd220267	-0.039553072
65	0xbeaba426	-0.33523673
66	0x3e1fbaa2	0.15598539
67	0x3e225827	0.1585394
68	0x01be23a7	6.9846136e-38
69	0x3e9596f7	0.2921674
70	0xa693b697	-1.0249665e-15
71	0x9b262b78	-1.3745244e-22
72	0x3e19c550	0.15016675
73	0x3ca1404b	0.019683978
74	0xa8e8be05	-2.5839582e-14
75	0x3e76ec2f	0.24113534
76	0xbd8bccce	-0.06826173
77	0xbdffe7dc	-0.124953955
78	0x884b912f	-6.1258753e-34
79	0xa59b4e3d	-2.694123e-16
80	0x28ff9fe9	2.8380037e-14
81	0xbd06784b	-0.032829564
82	0xbebc8ed4	-0.3682772
83	0x00b28562	1.6394567e-38
84	0xace681e4	-6.551414e-12
85	0x3a7af0b4	0.0009572611
86	0x3db1e74e	0.08686696
87	0x3d901b5e	0.0703647
88	0x1fa4b36d	6.9753537e-20
89	0xbdf448b8	-0.119279325
90	0xbdc7bae6	-0.09752445
91	0xbe83d780	-0.2575035
92	0xbc44f644	-0.012021605
93	0xbe110a58	-0.14164102
94	0xbe41972c	-0.18905324
95	0xa7e9d432	-6.4900554e-15
96	0x00a77264	1.5377563e-38
97	0xbe077a73	-0.13230304
98	0x3dc587a8	0.09645015
99	0xa32b0a84	-9.272155e-18
100	0xbecb49b8	-0.3970468
101	0x3e711436	0.23542866
102	0xbdafb0f0	-0.0857867
103	0x2c418edc	2.7506252e-12
104	0x1a6334ca	4.6985142e-23
105	0x81b4c526	-6.640445e-38
106	0x9dce6960	-5.46367e-21
107	0x3ed329f9	0.4124296
108	0x012fcce2	3.228942e-38
109	0x0109bf58	2.5300208e-38
110	0x80c374c8	-1.7949815e-38
111	0x3e185996	0.14877924
112	0xbca25eb6	-0.019820552
113	0xa091b9b4	-2.4686843e-19
114	0x3e056427	0.13026486
115	0xbe3f3c2c	-0.18675297
116	0x3e297ac8	0.16550744
117	0xbeae5068	-0.3404572
118	0xa4ce5197	-8.947648e-17
119	0x3ebc0a68	0.3672669
120	0x81008f04	-2.3612496e-38
121	0x2a7b58af	2.2324047e-13
122	0xbdf043c2	-0.11731674
123	0xbd660ed9	-0.056166504
124	0x215b7c95	7.436497e-19
125	0x3d8776b9	0.066144414
126	0x3e763e82	0.24047282
127	0xbe3ec2c2	-0.18628982
128	0x815e814c	-4.0867726e-38
129	0x207a1db0	2.1185646e-19
130	0x0b114250	2.7975872e-32
131	0x016ee52c	4.387812e-38
132	0xbd67b0a2	-0.056564935
133	0x889f2cee	-9.580027e-34
134	0x2dfaaa5f	2.849737e-11
135	0x1fa71b28	7.077218e-20
136	0x3ed4f331	0.4159179
137	0x3c9fb8be	0.019497272
138	0xa0984649	-2.5796312e-19
139	0x3e12080b	0.1426088
140	0xbed4e81e	-0.4158334
141	0x3e91aae8	0.28450704
142	0xbe397424	-0.1811071
143	0x0061ec9a	8.99292e-39
144	0x3eb6d3b2	0.35708386
145	0x128f4b56	9.0431405e-28
146	0x808ad46e	-1.2749504e-38
147	0x3eb62550	0.35575342
148	0xbe44cd90	-0.19219041
149	0xa51175c6	-1.2616648e-16
150	0x3e598b4b	0.21244542
151	0xbe723ca3	-0.23655944
152	0xbe52ee99	-0.2059883
153	0x00ec0b36	2.1677199e-38
154	0xa5bbbb5f	-3.2566297e-16
155	0x8079610f	-1.1146913e-38
156	0xa0243b89	-1.3911039e-19
157	0xbe0c9bf1	-0.13731362
158	0x16bafd78	3.0209882e-25
159	0x010e85d7	2.6177306e-38
160	0xb6922f7c	-4.356667e-06
161	0xbe5782c5	-0.21045978
162	0xbda628a9	-0.08113224
163	0xa1d0f7fb	-1.4160268e-18
164	0x3db71467	0.08939438
165	0xbd8fc37c	-0.070197076
166	0x3e453bed	0.19261141
167	0x3ea63a55	0.3246638
168	0xba6783d2	-0.00088315934
169	0x3e802122	0.25025278
170	0xaa8a3f2d	-2.4557561e-13
171	0x81a2f10b	-5.985528e-38
172	0xbd04edef	-0.032453474
173	0x3e43c0d3	0.19116525
174	0xa3b3cf65	-1.9495054e-17
175	0x3d5ceb2d	0.05393522
176	0xbd3837fe	-0.044975273
177	0xbe7f4b4e	-0.2493107
178	0x99a9919f	-1.7533006e-23
179	0x241337d1	3.1922822e-17
180	0x15fcace2	1.0205475e-25
181	0x3e4f61f2	0.20252207
182	0x3e9bd92a	0.3043912
183	0x2c6565d4	3.2599383e-12
184	0xaa0405ea	-1.1726007e-13
185	0x3e85836c	0.2607683
186	0x3eb2d13f	0.34925267
187	0xbe8152e8	-0.25258565
188	0x2cc577c0	5.6123717e-12
189	0xbda30eab	-0.07961782
190	0x3e7086a5	0.23488863
191	0xbdc9c6c1	-0.098523624
192	0x3e4b7f6f	0.19872831
193	0x3d0e9bc1	0.034816507
194	0xbeaf4fc4	-0.34240544
195	0x0133a49a	3.2995203e-38
196	0x01bc9c84	6.928488e-38
197	0x3cb0a854	0.02156464
198	0xbe9dcc10	-0.3081975
199	0x241461de	3.217528e-17
200	0x3e0ee5f0	0.13954902
201	0xbe0abdd4	-0.13548976
202	0xbeb92ade	-0.36165518
203	0x2c040756	1.87624e-12
204	0x811d6710	-2.891029e-38
205	0x2dd0f859	2.375715e-11
206	0x3e14704c	0.14495963
207	0x3ec752ca	0.3893035
208	0x01a385e6	6.006888e-38
209	0x2cc2371a	5.519929e-12
210	0x3e456b01	0.192791
211	0xbeb25fe7	-0.34838793
212	0x3daa14ad	0.08304725
213	0x23ff82b9	2.7702519e-17
214	0x3e24902a	0.16070619
215	0x3eca271d	0.39482966
216	0xbeb8f6fe	-0.3612594
217	0x3ebc645f	0.36795327
218	0xbe5d2293	-0.2159522
219	0xbe2e855d	-0.17043062
220	0x00ad85e7	1.5935576e-38
221	0x0114603e	2.7252357e-38
222	0xbe338587	-0.17531405
223	0x3e0c5c1f	0.13707016
224	0x820e42c8	-1.0451678e-37
225	0x1994a3c7	1.536899e-23
226	0x28ae3250	1.93397e-14
227	0x0b03efa7	2.5409977e-32
228	0x12a8cdc9	1.0653021e-27
229	0xa7532441	-2.9301786e-15
230	0xa55e7a0f	-1.9296786e-16
231	0x81371f77	-3.3634367e-38
232	0x0185bc59	4.912675e-38
233	0x8478bee8	-2.923992e-36
234	0x0188200e	5.0004506e-38
235	0x2b8c41a0	9.965813e-13
236	0x00a36700	1.5006135e-38
237	0x24352cac	3.9285957e-17
238	0x867b4ed4	-4.7265767e-35
239	0x232db371	9.416347e-18
240	0x122ed9d3	5.517321e-28
241	0x1d9c8b0c	4.1436627e-21
242	0x0181dbea	4.770268e-38
243	0x9511c120	-2.9434866e-26
244	0x00590d01	8.178024e-39
245	0x11977bfe	2.3900015e-28
246	0x225cd52a	2.9928408e-18
247	0x1beef612	3.9532816e-22
248	0x127458af	7.7102135e-28
249	0x15b96865	7.488561e-26

feature_layer.num_emb_layer.2.bias f4 [10]
0	0xb4e5128c	-4.2668069e-07
1	0x345d7d89	2.0627898e-07
2	0x3985782e	0.00025457278
3	0x3aadb783	0.0013253543
4	0x3b4641ae	0.003025155
5	0xbaa571e2	-0.0012622441
6	0x3a53c419	0.0008078232
7	0x3b03dc4d	0.0020120323
8	0x3a1e753f	0.0006044693
9	0x00000000	0.0

feature_layer.cat_emb_layer.embedding_dict.0.weight f4 [2, 2]
0	0x359d1580	1.1703669e-06
1	0x31a90910	4.9195776e-09
2	0xb984172c	-0.00025194266
3	0xb2f7b97a	-2.883893e-08

feature_layer.cat_emb_layer.embedding_dict.1.weight f4 [15, 4]
0	0xba74f0d3	-0.0009343747
1	0xb9d7cdcd	-0.0004116133
2	0xbe937885	-0.28802887
3	0x256f1670	2.0737548e-16
4	0xbcb98f0b	-0.022651216
5	0x372c2760	1.0261167e-05
6	0x3ce78d43	0.028265601
7	0x31cf9024	6.04088e-09
8	0xbf3cc0e7	-0.73731846
9	0x3e4d7145	0.2006274
10	0xb80105f3	-3.0761537e-05
11	0x014805e7	3.6738433e-38
12	0x354490ab	7.322621e-07
13	0x3ae7c6c2	0.0017683136
14	0x3a5c7322	0.000840949
15	0xb470f4d2	-2.2440807e-07
16	0x2badbe57	1.2345219e-12
17	0x3e9f09ff	0.31062314
18	0xa9202acc	-3.5564257e-14
19	0xb9d2bb46	-0.0004019385
20	0x00c99f4c	1.851608e-38
21	0xb3f03b20	-1.1186626e-07
22	0xbef52056	-0.47876233
23	0x3a7f0f04	0.00097297155
24	0x3ee096df	0.43865106
25	0xb48703e6	-2.5148546e-07
26	0x3c2a15f5	0.0103812115
27	0xb177f6dd	-3.6083556e-09
28	0x3e858834	0.26080477
29	0x3532f5d8	6.6667917e-07
30	0x26a939f0	1.1742435e-15
31	0x2b89a152	9.779211e-13
32	0x99490b19	-1.03936976e-23
33	0xb4102686	-1.342506e-07
34	0x3a53da2d	0.0008081522
35	0x3cd8b11f	0.026451645
36	0xb943a211	-0.00018657024
37	0xb814e6dd	-3.5500958e-05
38	0xb23e9c3b	-1.1094978e-08
39	0xb590bb4b	-1.0783345e-06
40	0x1bec8a7b	3.9132416e-22
41	0x3bb16364	0.0054134596
42	0xadd905d6	-2.4672635e-11
43	0x2bb16ba8	1.2606487e-12
44	0xb38387b2	-6.124846e-08
45	0xbf23af96	-0.639398
46	0xa4364c7f	-3.9529754e-17
47	0x3e24165d	0.16024156
48	0xa8cccd11	-2.2737483e-14
49	0x39451b07	0.00018797453
50	0xa75257f9	-2.9191044e-15
51	0x2a0f6a7b	1.2737894e-13
52	0x03c43690	1.1532372e-36
53	0x3afc1a7d	0.0019233968
54	0x27d979c6	6.0361626e-15
55	0xbc320e76	-0.010867706
56	0x3e09ebc6	0.13468847
57	0x382fb1c9	4.1888827e-05
58	0x37278ba4	9.986488e-06
59	0x35c3ac2f	1.4578744e-06

feature_layer.cat_emb_layer.embedding_dict.2.weight f4 [16, 4]
0	0x3897da0b	7.240855e-05
1	0xbb0c90ad	-0.0021448538
2	0xb37bfe53	-5.8671798e-08
3	0x3d3d9c25	0.04629149
4	0x288dd302	1.5745655e-14
5	0x333ac5c3	4.3486363e-08
6	0xb52a389f	-6.341233e-07
7	0xba041951	-0.0005039173
8	0x32d94041	2.5291344e-08
9	0xb67f4aea	-3.8041567e-06
10	0xb7e6154a	-2.742805e-05
11	0xb671bb7b	-3.6020926e-06
12	0x3b1b265a	0.0023673982
13	0xb5e572b2	-1.709521e-06
14	0xbd9750b2	-0.07388438
15	0xbc1e7b5b	-0.009672965
16	0x01b17e32	6.520061e-38
17	0x2f2f8b38	1.5965618e-10
18	0xbc07737d	-0.008267281
19	0xbc68e9c2	-0.014215888
20	0x3b94d147	0.0045415494
21	0x395f018d	0.00021267515
22	0x326e332f	1.3865061e-08
23	0x39bd269a	0.0003607765
24	0xb2fec7c8	-2.9660342e-08
25	0xb3e133ad	-1.0486779e-07
26	0xbcf08c72	-0.029363845
27	0x3a86007d	0.0010223534
28	0x387bcb98	6.0032675e-05
29	0x38a4a022	7.8499565e-05
30	0xb9d4b466	-0.00040570198
31	0xb73b6f3b	-1.1171966e-05
32	0x3e2756f7	0.16341768
33	0x33772946	5.7546707e-08
34	0xb2601143	-1.3042441e-08
35	0xb745e5a6	-1.1795584e-05
36	0x3aaa112f	0.0012975092
37	0x36a08891	4.78427e-06
38	0x35db30c2	1.6330962e-06
39	0x3f2d86f8	0.6778407
40	0x2618293d	5.279148e-16
41	0xb2816474	-1.5063257e-08
42	0x381d1141	3.7447786e-05
43	0xba8743ac	-0.001031985
44	0xb188a8ed	-3.9773256e-09
45	0x3b0ab10c	0.0021162657
46	0x3b3cf6ce	0.002883363
47	0x3799d5c4	1.8338564e-05
48	0x3b9fd2e6	0.004877436
49	0x3c83863c	0.016055219
50	0x343c482c	1.753512e-07
51	0x3801c3ee	3.093847e-05
52	0xbb5aa49e	-0.003336228
53	0xb48575e1	-2.485895e-07
54	0x384a682c	4.825757e-05
55	0xaf80f9c5	-2.3460536e-10
56	0xb8a15db4	-7.694532e-05
57	0x3731063c	1.0551474e-05
58	0xb94e8be3	-0.00019697803
59	0x35bc94b7	1.4050373e-06
60	0x32d09028	2.4279942e-08
61	0x3dc46442	0.09589435
62	0x399ea9e1	0.00030262678
63	0x39df03a7	0.00042536596

feature_layer.cat_emb_layer.embedding_dict.3.weight f4 [6, 4]
0	0xbb566098	-0.0032711383
1	0xbe97433d	-0.29543486
2	0xbae4c842	-0.0017454701
3	0x39ba362c	0.00035517046
4	0x3be30ca7	0.0069289985
5	0xbdb1f201	-0.08688737
6	0xad8301be	-1.489375e-11
7	0x381edad0	3.787392e-05
8	0xb85301f1	-5.030813e-05
9	0xbd0d627c	-0.03451775
10	0x1289fd70	8.708393e-28
11	0xbdb29fc4	-0.08721879
12	0x3c0ac799	0.008470439
13	0x2f134b6b	1.3396366e-10
14	0xbae71493	-0.0017630033
15	0x35ec3584	1.7598945e-06
16	0x3e76ccd5	0.24101575
17	0x3baa3791	0.0051946123
18	0x29c0f675	8.569266e-14
19	0xb6c41010	-5.843125e-06
20	0xbf31812b	-0.6933772
21	0x38c572c7	9.415071e-05
22	0xbe550050	-0.208009
23	0xaf71d3e5	-2.1994102e-10

feature_layer.cat_emb_layer.embedding_dict.4.weight f4 [9, 4]
0	0x3bde3325	0.0067809992
1	0x3d9c0434	0.07617989
2	0x3c58e84b	0.013238977
3	0x3d96c8e5	0.07362536
4	0x3e7d8db7	0.24761091
5	0xbb628660	-0.0034564957
6	0x3e906e4c	0.2820915
7	0x388d0584	6.724431e-05
8	0xb555cf28	-7.9650135e-07
9	0x35599029	8.104858e-07
10	0x36af6bde	5.227964e-06
11	0xbe026277	-0.12732874
12	0xbdca386a	-0.098740414
13	0xb4b53085	-3.374918e-07
14	0xbc881940	-0.016613603
15	0x3fb3a752	1.4035437
16	0x3e13917f	0.14410971
17	0x3ea58a80	0.3233223
18	0xbe4c7d96	-0.19969782
19	0x3e514769	0.20437397
20	0xbb63c2ae	-0.003475349
21	0x3e1f4a2c	0.15555638
22	0xb953085b	-0.00020125641
23	0x397ab1f9	0.00023908158
24	0xb794d0e0	-1.774024e-05
25	0x3ec70271	0.3886905
26	0xbcfb16ea	-0.030650575
27	0x3dc1eea3	0.094693445
28	0x3cb97d8c	0.022642873
29	0x37c2a5b0	2.3203756e-05
30	0xbaa0bdc3	-0.0012263585
31	0x36db704b	6.539781e-06
32	0x3d03239e	0.03201639
33	0x01223cd5	2.9798346e-38
34	0x3ccb9ac2	0.024854068
35	0x3c22a6cb	0.009927462

feature_layer.cat_emb_layer.embedding_dict.5.weight f4 [7, 4]
0	0xbbe31abd	-0.0069306777
1	0x3d42202c	0.047393963
2	0x3e61dfb8	0.22057998
3	0x3d41830a	0.04724411
4	0x3af07706	0.0018346019
5	0xadc42ee2	-2.230344e-11
6	0xbc841972	-0.016125415
7	0x3ae7d5cd	0.0017687619
8	0x3c151418	0.009099029
9	0x3db71a2c	0.08940539
10	0x34b5779f	3.3800913e-07
11	0xbd48c34c	-0.049014375
12	0xbbdc3d05	-0.0067211413
13	0x3b822e9f	0.003972843
14	0xb8f6f613	-0.00011776029
15	0xbe829b2c	-0.25509012
16	0x3b839b6d	0.004016331
17	0x3d603156	0.05473455
18	0x34f71d9f	4.6028887e-07
19	0xbc97a5fe	-0.018511768
20	0xb91f6e26	-0.00015204455
21	0x81a6ea90	-6.131535e-38
22	0x01869ebe	4.945161e-38
23	0x38a5f7d6	7.913976e-05
24	0xbcd53a39	-0.02602874
25	0x2d9a8693	1.7567536e-11
26	0x3bf21963	0.0073882802
27	0xb7ecd9bc	-2.8234783e-05

feature_layer.cat_emb_layer.embedding_dict.6.weight f4 [5, 4]
0	0xb4c8ca0a	-3.7399906e-07
1	0xb5a8aa2d	-1.2566503e-06
2	0xaa2552ca	-1.4683667e-13
3	0xadb40ea7	-2.0470138e-11
4	0x364b2413	3.0270355e-06
5	0x268a1e4e	9.583888e-16
6	0xb91d7aa8	-0.0001501838
7	0x3addefa7	0.0016932384
8	0xb63be417	-2.7997937e-06
9	0x9bf375d4	-4.0277122e-22
10	0xb910e670	-0.00013818755
11	0x3ba5f582	0.005064667
12	0x3dcf3099	0.10116691
13	0x3eb24b80	0.34823227
14	0xa545b740	-1.7149114e-16
15	0x3c22ae3a	0.009929234
16	0x3c1d406f	0.009597882
17	0x3ddb45a0	0.10706639
18	0x3e8004ae	0.2500357
19	0x3bf9eb00	0.007626891

feature_layer.cat_emb_layer.embedding_dict.7.weight f4 [42, 4]
0	0x32112308	8.448076e-09
1	0x263949f8	6.4285015e-16
2	0x1de46420	6.0454624e-21
3	0xaf3ce614	-1.718024e-10
4	0x3d3054dc	0.04304968
5	0x019a6514	5.6715706e-38
6	0x0030420e	4.4318e-39
7	0x3ae6a82b	0.0017597725
8	0x31794f07	3.627919e-09
9	0x35ddcdfd	1.6525734e-06
10	0xbd021f90	-0.03176838
11	0x3e1d4f2e	0.15362236
12	0x3ac82126	0.0015268668
13	0xbdbd51ec	-0.09244141
14	0x372dbffd	1.0356304e-05
15	0x3b96a7b2	0.0045976276
16	0x1fcd3db3	8.692295e-20
17	0xbc2a14b7	-0.010380915
18	0xb796e2d7	-1.7987024e-05
19	0x9e66755b	-1.2200367e-20
20	0x2f01e583	1.181402e-10
21	0x3421c641	1.5066418e-07
22	0x3c092318	0.008370183
23	0x3d0e35e2	0.034719355
24	0x3d208ab4	0.039194778
25	0xbd8ca2b6	-0.06866972
26	0xb158278c	-3.1454617e-09
27	0x3f260def	0.6486501
28	0x3c4f2d0c	0.012645017
29	0xb823034f	-3.886531e-05
30	0xb106ccba	-1.961594e-09
31	0x35cf6452	1.5451899e-06
32	0xbdd92833	-0.106033705
33	0xbb7eca7a	-0.003887801
34	0xbf0bda0a	-0.54629576
35	0x3ebee2fe	0.37282556
36	0x39140b23	0.00014118529
37	0xb5992b29	-1.141195e-06
38	0x3e6bb778	0.23019207
39	0x2c2172dc	2.2943236e-12
40	0x3ebb9d06	0.36643237
41	0x8346a622	-5.837768e-37
42	0xbcd3ad17	-0.025839372
43	0xb0077ba3	-4.928841e-10
44	0xb570f073	-8.9756867e-07
45	0x0e39e0ff	2.2911342e-30
46	0x860a37a8	-2.5995805e-35
47	0xb53c286a	-7.009427e-07
48	0x38bdda6a	9.052905e-05
49	0xbd39ec87	-0.045391586
50	0x00f0e880	2.2123924e-38
51	0x2e3484c4	4.104518e-11
52	0x3d5a9a50	0.05336982
53	0x9a2949b0	-3.5007905e-23
54	0xb8e34d72	-0.00010838629
55	0x37805198	1.5296784e-05
56	0x33082aa6	3.1703756e-08
57	0xbf190d89	-0.5978628
58	0x3e0f6921	0.14004947
59	0x33053239	3.1012153e-08
60	0xbd3786bc	-0.044806227
61	0x0024d1de	3.381364e-39
62	0xb4055575	-1.241768e-07
63	0xbbc6c8ce	-0.0060664183
64	0x812dcf7e	-3.192395e-38
65	0x818ee5dd	-5.24924e-38
66	0x1bc19ca8	3.2030408e-22
67	0xbdc79986	-0.09746079
68	0xaa74e52c	-2.1751063e-13
69	0xbd9d7bb0	-0.07689607
70	0x343e3bde	1.7716908e-07
71	0x360b29f6	2.0737039e-06
72	0x813369f4	-3.2953125e-38
73	0x155daf9a	4.476912e-26
74	0xa1a49b36	-1.1154156e-18
75	0x80283a0c	-3.694243e-39
76	0x3211584e	8.460189e-09
77	0x9d2423ec	-2.172379e-21
78	0x3da3d141	0.079988964
79	0x328105b0	1.5020163e-08
80	0x279fd0e9	4.4357866e-15
81	0xbd0a507f	-0.033768173
82	0x019e2077	5.808662e-38
83	0xbe74e58d	-0.23915692
84	0xb91b13d8	-0.00014789344
85	0xbdb98994	-0.09059444
86	0x3a98a4d7	0.0011645806
87	0x36a76f19	4.9899213e-06
88	0xa48f1efe	-6.206887e-17
89	0x37c313c8	2.3255023e-05
90	0x3d5a018e	0.05322414
91	0xbcc8f3e3	-0.024530357
92	0xb9e366c2	-0.00043373375
93	0x9e0f5ee0	-7.589977e-21
94	0x3adb5591	0.0016733875
95	0x362c141c	2.5641702e-06
96	0x3dcd5120	0.10025239
97	0x3d219b80	0.039454937
98	0xa304b5fb	-7.19427e-18
99	0x3d8227e2	0.06355263
100	0x30ed41ca	1.7262718e-09
101	0x38d2b26e	0.000100468154
102	0x2f936676	2.6811947e-10
103	0xbc265a62	-0.010153385
104	0x3254ba9a	1.2382452e-08
105	0x2b88148d	9.669085e-13
106	0x386a7d12	5.590643e-05
107	0xbdb05ce9	-0.08611471
108	0xbb2d9a4b	-0.002648967
109	0x34199250	1.4302464e-07
110	0x2c32985a	2.5379893e-12
111	0x3dfa5eaa	0.12225087
112	0xbdece72e	-0.115675315
113	0x344494d2	1.8308063e-07
114	0x006cd7ae	9.995605e-39
115	0x3e12310b	0.14276521
116	0x3bf32a30	0.0074208006
117	0x2a0ebaf5	1.2676997e-13
118	0xbb581ca2	-0.003297605
119	0xbe074bab	-0.13212459
120	0xb2c7c5b2	-2.325655e-08
121	0xb840b519	-4.5945028e-05
122	0xbe8d107c	-0.2755164
123	0x3384e8fc	6.1891086e-08
124	0xbf1528f1	-0.58265597
125	0x3b0eb458	0.0021774974
126	0x3b0ce7a5	0.0021500376
127	0x3b5ac053	0.0033378794
128	0x3925d744	0.00015815819
129	0xad04fe73	-7.55983e-12
130	0x229bdc78	4.2246265e-18
131	0xbd0c7626	-0.034292363
132	0x36b3b08e	5.3551694e-06
133	0xbc960ff7	-0.01831816
134	0x3e73a070	0.23791671
135	0x39e02166	0.00042749493
136	0x3b37b373	0.0028030544
137	0x222c0373	2.3312173e-18
138	0x3880370f	6.113771e-05
139	0x1ea7ab0e	1.775256e-20
140	0x2e937f1f	6.707367e-11
141	0xba520bc4	-0.00080126175
142	0xbedc22d2	-0.42995316
143	0xbba6760a	-0.0050799893
144	0x39dec91f	0.00042492987
145	0xbd15229a	-0.03640995
146	0xbe9cf4c2	-0.30655485
147	0x1f9f1c4b	6.7385926e-20
148	0x36603827	3.3411286e-06
149	0x00ad8df8	1.593847e-38
150	0xa81021ab	-8.000906e-15
151	0x2bd9071c	1.5420751e-12
152	0x96a524c1	-2.6680383e-25
153	0x39ceb929	0.00039429337
154	0x1497e6c7	1.5338129e-26
155	0x1401fcab	6.5626656e-27
156	0xbb60dbcc	-0.0034310697
157	0xbe2816fe	-0.16415021
158	0x3d98b155	0.074556984
159	0xb9cabb46	-0.00038667972
160	0xb349fa00	-4.7026333e-08
161	0xbd065ecb	-0.032805245
162	0xbdbd2c60	-0.092369795
163	0xb82a58b1	-4.061376e-05
164	0xb66d1141	-3.5325795e-06
165	0xbc25e8d3	-0.01012631
166	0x3e18cb17	0.14921223
167	0xb945b6a8	-0.00018855429

feature_layer.numeric.0.weight f4 [25, 6]
0	0x3d45ee89	0.048323188
1	0x3ee64960	0.44977856
2	0xbde0d4c6	-0.10978083
3	0x3ea93292	0.33046395
4	0xbe64547d	-0.22297855
5	0x3d2f4ecc	0.042799756
6	0xbbee3d23	-0.0072704717
7	0xbdb8858c	-0.09009847
8	0xb6039d19	-1.9611964e-06
9	0x3e46251f	0.19350098
10	0x2ad254bf	3.7362298e-13
11	0xbd42c326	-0.04754939
12	0x3e5673d7	0.20942627
13	0x3e93424c	0.28761518
14	0xbbd4577f	-0.006480157
15	0xbe6340f2	-0.22192743
16	0xbe864901	-0.26227573
17	0xbe44f1f2	-0.1923292
18	0x013aa3eb	3.428041e-38
19	0xb91c3e2b	-0.00014900479
20	0x019b6972	5.7089314e-38
21	0x018b693c	5.121154e-38
22	0x3006c6bc	4.9031335e-10
23	0x277a6966	3.4751606e-15
24	0xa0a355d5	-2.7670073e-19
25	0xa8468fc5	-1.1022383e-14
26	0x9f555322	-4.517327e-20
27	0x242a2b83	3.689973e-17
28	0xaa01c37b	-1.1525323e-13
29	0x26eb5765	1.6330089e-15
30	0x014bf022	3.7457498e-38
31	0xada975cb	-1.9265386e-11
32	0x8fd0c51c	-2.0586307e-29
33	0x9a10661c	-2.9860985e-23
34	0x800242aa	-2.07586e-40
35	0xaf265283	-1.5126926e-10
36	0x2c5c9c4f	3.135065e-12
37	0xbe367638	-0.17818534
38	0x2ceb470d	6.68699e-12
39	0x3e0bed1b	0.13664667
40	0xa87b9758	-1.3966116e-14
41	0x15aabecd	6.8963484e-26
42	0xbc91fd08	-0.01782085
43	0x3e44218c	0.19153422
44	0x3d5f99c6	0.05459001
45	0xbdc19c47	-0.09453636
46	0x3e8a1cc4	0.2697507
47	0x3eac343c	0.33633602
48	0x018feb66	5.2867684e-38
49	0xaff58816	-4.4661935e-10
50	0x0131d21c	3.2660512e-38
51	0xae9f71bb	-7.2506855e-11
52	0x0086e850	1.2389295e-38
53	0x013187f2	3.2607302e-38
54	0x8f5fc604	-1.1032885e-29
55	0x94910972	-1.4644984e-26
56	0x8f9495b2	-1.4651587e-29
57	0x81271fd0	-3.069588e-38
58	0x93516830	-2.6430877e-27
59	0x103305a3	3.5305868e-29
60	0xb7000638	-7.630842e-06
61	0xbe1cdf4f	-0.1531956
62	0xae4d47a3	-4.667523e-11
63	0x3e2af431	0.16694714
64	0xa2cc8a3f	-5.5440685e-18
65	0x37baa016	2.2247474e-05
66	0x3e726123	0.23669867
67	0x3ed42f63	0.41442403
68	0xbcad6ee5	-0.021171043
69	0x3e1cf869	0.15329136
70	0x3dee691a	0.1164114
71	0x3e2ec3d8	0.17066896
72	0xbcde6963	-0.027149862
73	0x3afbc73f	0.001920916
74	0x398549f7	0.00025422845
75	0xbebd4b64	-0.3697158
76	0x3e9b8309	0.3037341
77	0x3c9a0776	0.018802386
78	0x9efbea01	-2.667244e-20
79	0xa22bb322	-2.3269654e-18
80	0x9e252039	-8.741691e-21
81	0x241d1d40	3.4068724e-17
82	0x9ad3043c	-8.7274396e-23
83	0x9e9e38e2	-1.6752427e-20
84	0x3dbd0250	0.09228957
85	0x3e8990cf	0.26868293
86	0xbb39022e	-0.002823006
87	0xbe6424c0	-0.22279644
88	0x3d90e8c4	0.070756465
89	0x3e659fb0	0.22424197
90	0xbd9a0c90	-0.07521927
91	0x3e297cc6	0.16551504
92	0xbe8b52ec	-0.27211702
93	0xbea44905	-0.3208696
94	0x3e4561bf	0.19275568
95	0x3e932bbe	0.2874431
96	0x3decf5c2	0.11570312
97	0x3e19719e	0.14984748
98	0x3e1e0e56	0.15435156
99	0x3e0f04e2	0.13966706
100	0x3e9a7173	0.3016468
101	0x3e60284a	0.21890369
102	0x3e6200f5	0.22070678
103	0x3db0e496	0.08637349
104	0x3e3abfdc	0.18237251
105	0xbe8e9c14	-0.27853453
106	0x3e4acd45	0.19804867
107	0x3e5d534e	0.2161381
108	0x2dc5fefa	2.250954e-11
109	0xbe5ba7a4	-0.21450669
110	0xae174aa2	-3.4399712e-11
111	0x3e88e93a	0.26740438
112	0xa407b154	-2.942366e-17
113	0x2da456b0	1.8683138e-11
114	0x3e75ad37	0.23991857
115	0x3d9ec46b	0.077523075
116	0xbc425495	-0.011860986
117	0x3d9f5181	0.077792175
118	0xbe85ee75	-0.2615849
119	0x3e877104	0.26453412
120	0x25579f80	1.8702318e-16
121	0xab4ec3f9	-7.345787e-13
122	0xae25c5e5	-3.7692422e-11
123	0x811ef156	-2.9193167e-38
124	0xac58b001	-3.0793148e-12
125	0x28926820	1.6254413e-14
126	0x01a0968f	5.899076e-38
127	0x822af538	-1.2560002e-37
128	0xae3678ae	-4.1489194e-11
129	0x8f520668	-1.0355033e-29
130	0x012096b5	2.9495486e-38
131	0x8117066c	-2.7738927e-38
132	0xbeaa26dd	-0.33232775
133	0x3bd38d72	0.0064560706
134	0x3dac8f97	0.08425825
135	0xbedde57a	-0.4333914
136	0x3ea07ff9	0.31347635
137	0xbe07c391	-0.13258196
138	0xbe7327fc	-0.23745722
139	0x3e16e2cf	0.14734958
140	0xbd9fec66	-0.07808761
141	0x3e509956	0.20370993
142	0x3ea454cb	0.32095942
143	0x3e20b061	0.15692283
144	0x22970003	4.0928644e-18
145	0xa914db1e	-3.3052655e-14
146	0x221468dd	2.0113254e-18
147	0xa7bca780	-5.2362086e-15
148	0xaf7cbe3e	-2.2986854e-10
149	0x2abe011b	3.3751547e-13

feature_layer.numeric.0.bias f4 [25]
0	0x3999aaa7	0.0002930958
1	0xaea22d60	-7.374967e-11
2	0xb9c2fa43	-0.00037189023
3	0x81bf4310	-7.025855e-38
4	0x1ed0c2ae	2.2103374e-20
5	0x00000000	0.0
6	0x811eefd0	-2.9192074e-38
7	0x3b0ff68f	0.0021967029
8	0x00000000	0.0
9	0x0e9498d8	3.6632e-30
10	0x2ab84957	3.2735856e-13
11	0xb884d46a	-6.333816e-05
12	0x34649a0e	2.12902e-07
13	0x9c8ec618	-9.447978e-22
14	0xb80c9b69	-3.3523338e-05
15	0xb867605c	-5.5164433e-05
16	0xb9324390	-0.00017000572
17	0x3985f989	0.00025553655
18	0xa99f916c	-7.086245e-14
19	0xb686689a	-4.0056884e-06
20	0x01814540	4.7486485e-38
21	0x00000000	0.0
22	0xb97e54a0	-0.00024254853
23	0x39855e66	0.0002543807
24	0x20b664e2	3.0898758e-19

feature_layer.numeric.2.weight f4 [10, 25]
0	0x3e92b944	0.2865697
1	0xbdd0bcef	-0.10192286
2	0x3e27881c	0.16360515
3	0xa71c3d0b	-2.168244e-15
4	0x000e6f7b	1.325689e-39
5	0x81926d61	-5.378888e-38
6	0x3c33d62e	0.010976357
7	0xbed0f9dc	-0.40815628
8	0x2cb747d5	5.209148e-12
9	0x010af701	2.5523814e-38
10	0xbe9a2733	-0.30108032
11	0xbed4668d	-0.4148449
12	0xbe07918a	-0.13239112
13	0x129edaa2	1.0025099e-27
14	0xbe64247a	-0.2227954
15	0x3d4a6b32	0.049418636
16	0x3d1ba0b4	0.037995055
17	0x3e1f3333	0.15546875
18	0x3d0fb05f	0.03508031
19	0x3e0d973d	0.13827224
20	0x800a640a	-9.54242e-40
21	0x8125523c	-3.0364714e-38
22	0xbe35e68e	-0.17763731
23	0x3e008a39	0.12552728
24	0x01567bb4	3.9394345e-38
25	0x3ed4cddc	0.41563308
26	0x3ea651fe	0.3248443
27	0x3ec1a524	0.37821305
28	0x084b51c6	6.1184215e-34
29	0x1b531a88	1.7462084e-22
30	0x88a44738	-9.887134e-34
31	0xbe1ae2bb	-0.15125553
32	0xbe9bae18	-0.3040626
33	0x23645829	1.2378573e-17
34	0x81b8d105	-6.7890853e-38
35	0xbdd9d3f9	-0.10636134
36	0xbcfbf187	-0.030754818
37	0xbd93c34d	-0.07214985
38	0xa0b3817b	-3.0409462e-19
39	0x3c19d978	0.0093902275
40	0xbe99edec	-0.30064332
41	0x3e5b09ee	0.21390507
42	0xbe664eac	-0.22490948
43	0x3dfdb3f8	0.12387842
44	0xbec3d207	-0.38246176
45	0x00623446	9.018631e-39
46	0x0101c714	2.383639e-38
47	0xbe5e6a7b	-0.21720307
48	0xbd500aa9	-0.050791416
49	0xa1f5c7d7	-1.6654743e-18
50	0xbe10c6e3	-0.1413837
51	0x38f039e6	0.00011454876
52	0x3e2ee6b7	0.17080198
53	0xa126f21b	-5.656341e-19
54	0x2d164131	8.540988e-12
55	0x01a07d1b	5.8954235e-38
56	0x13f1600d	6.0931666e-27
57	0x3e3b0c5f	0.18266438
58	0x005f6557	8.760726e-39
59	0x0b0042ae	2.4702068e-32
60	0x81a8f4b3	-6.206458e-38
61	0xbd78196e	-0.060571127
62	0xbc464a3b	-0.012102659
63	0x019448ce	5.4471083e-38
64	0xbd220267	-0.039553072
65	0xbeaba426	-0.33523673
66	0x3e1fbaa2	0.15598539
67	0x3e225827	0.1585394
68	0x01be23a7	6.9846136e-38
69	0x3e9596f7	0.2921674
70	0xa693b697	-1.0249665e-15
71	0x9b262b78	-1.3745244e-22
72	0x3e19c550	0.15016675
73	0x3ca1404b	0.019683978
74	0xa8e8be05	-2.5839582e-14
75	0x3e76ec2f	0.24113534
76	0xbd8bccce	-0.06826173
77	0xbdffe7dc	-0.124953955
78	0x884b912f	-6.1258753e-34
79	0xa59b4e3d	-2.694123e-16
80	0x28ff9fe9	2.8380037e-14
81	0xbd06784b	-0.032829564
82	0xbebc8ed4	-0.3682772
83	0x00b28562	1.6394567e-38
84	0xace681e4	-6.551414e-12
85	0x3a7af0b4	0.0009572611
86	0x3db1e74e	0.08686696
87	0x3d901b5e	0.0703647
88	0x1fa4b36d	6.9753537e-20
89	0xbdf448b8	-0.119279325
90	0xbdc7bae6	-0.09752445
91	0xbe83d780	-0.2575035
92	0xbc44f644	-0.012021605
93	0xbe110a58	-0.14164102
94	0xbe41972c	-0.18905324
95	0xa7e9d432	-6.4900554e-15
96	0x00a77264	1.5377563e-38
97	0xbe077a73	-0.13230304
98	0x3dc587a8	0.09645015
99	0xa32b0a84	-9.272155e-18
100	0xbecb49b8	-0.3970468
101	0x3e711436	0.23542866
102	0xbdafb0f0	-0.0857867
103	0x2c418edc	2.7506252e-12
104	0x1a6334ca	4.6985142e-23
105	0x81b4c526	-6.640445e-38
106	0x9dce6960	-5.46367e-21
107	0x3ed329f9	0.4124296
108	0x012fcce2	3.228942e-38
109	0x0109bf58	2.5300208e-38
110	0x80c374c8	-1.7949815e-38
111	0x3e185996	0.14877924
112	0xbca25eb6	-0.019820552
113	0xa091b9b4	-2.4686843e-19
114	0x3e056427	0.13026486
115	0xbe3f3c2c	-0.18675297
116	0x3e297ac8	0.16550744
117	0xbeae5068	-0.3404572
118	0xa4ce5197	-8.947648e-17
119	0x3ebc0a68	0.3672669
120	0x81008f04	-2.3612496e-38
121	0x2a7b58af	2.2324047e-13
122	0xbdf043c2	-0.11731674
123	0xbd660ed9	-0.056166504
124	0x215b7c95	7.436497e-19
125	0x3d8776b9	0.066144414
126	0x3e763e82	0.24047282
127	0xbe3ec2c2	-0.18628982
128	0x815e814c	-4.0867726e-38
129	0x207a1db0	2.1185646e-19
130	0x0b114250	2.7975872e-32
131	0x016ee52c	4.387812e-38
132	0xbd67b0a2	-0.056564935
133	0x889f2cee	-9.580027e-34
134	0x2dfaaa5f	2.849737e-11
135	0x1fa71b28	7.077218e-20
136	0x3ed4f331	0.4159179
137	0x3c9fb8be	0.019497272
138	0xa0984649	-2.5796312e-19
139	0x3e12080b	0.1426088
140	0xbed4e81e	-0.4158334
141	0x3e91aae8	0.28450704
142	0xbe397424	-0.1811071
143	0x0061ec9a	8.99292e-39
144	0x3eb6d3b2	0.35708386
145	0x128f4b56	9.0431405e-28
146	0x808ad46e	-1.2749504e-38
147	0x3eb62550	0.35575342
148	0xbe44cd90	-0.19219041
149	0xa51175c6	-1.2616648e-16
150	0x3e598b4b	0.21244542
151	0xbe723ca3	-0.23655944
152	0xbe52ee99	-0.2059883
153	0x00ec0b36	2.1677199e-38
154	0xa5bbbb5f	-3.2566297e-16
155	0x8079610f	-1.1146913e-38
156	0xa0243b89	-1.3911039e-19
157	0xbe0c9bf1	-0.13731362
158	0x16bafd78	3.0209882e-25
159	0x010e85d7	2.6177306e-38
160	0xb6922f7c	-4.356667e-06
161	0xbe5782c5	-0.21045978
162	0xbda628a9	-0.08113224
163	0xa1d0f7fb	-1.4160268e-18
164	0x3db71467	0.08939438
165	0xbd8fc37c	-0.070197076
166	0x3e453bed	0.19261141
167	0x3ea63a55	0.3246638
168	0xba6783d2	-0.00088315934
169	0x3e802122	0.25025278
170	0xaa8a3f2d	-2.4557561e-13
171	0x81a2f10b	-5.985528e-38
172	0xbd04edef	-0.032453474
173	0x3e43c0d3	0.19116525
174	0xa3b3cf65	-1.9495054e-17
175	0x3d5ceb2d	0.05393522
176	0xbd3837fe	-0.044975273
177	0xbe7f4b4e	-0.2493107
178	0x99a9919f	-1.7533006e-23
179	0x241337d1	3.1922822e-17
180	0x15fcace2	1.0205475e-25
181	0x3e4f61f2	0.20252207
182	0x3e9bd92a	0.3043912
183	0x2c6565d4	3.2599383e-12
184	0xaa0405ea	-1.1726007e-13
185	0x3e85836c	0.2607683
186	0x3eb2d13f	0.34925267
187	0xbe8152e8	-0.25258565
188	0x2cc577c0	5.6123717e-12
189	0xbda30eab	-0.07961782
190	0x3e7086a5	0.23488863
191	0xbdc9c6c1	-0.098523624
192	0x3e4b7f6f	0.19872831
193	0x3d0e9bc1	0.034816507
194	0xbeaf4fc4	-0.34240544
195	0x0133a49a	3.2995203e-38
196	0x01bc9c84	6.928488e-38
197	0x3cb0a854	0.02156464
198	0xbe9dcc10	-0.3081975
199	0x241461de	3.217528e-17
200	0x3e0ee5f0	0.13954902
201	0xbe0abdd4	-0.13548976
202	0xbeb92ade	-0.36165518
203	0x2c040756	1.87624e-12
204	0x811d6710	-2.891029e-38
205	0x2dd0f859	2.375715e-11
206	0x3e14704c	0.14495963
207	0x3ec752ca	0.3893035
208	0x01a385e6	6.006888e-38
209	0x2cc2371a	5.519929e-12
210	0x3e456b01	0.192791
211	0xbeb25fe7	-0.34838793
212	0x3daa14ad	0.08304725
213	0x23ff82b9	2.7702519e-17
214	0x3e24902a	0.16070619
215	0x3eca271d	0.39482966
216	0xbeb8f6fe	-0.3612594
217	0x3ebc645f	0.36795327
218	0xbe5d2293	-0.2159522
219	0xbe2e855d	-0.17043062
220	0x00ad85e7	1.5935576e-38
221	0x0114603e	2.7252357e-38
222	0xbe338587	-0.17531405
223	0x3e0c5c1f	0.13707016
224	0x820e42c8	-1.0451678e-37
225	0x1994a3c7	1.536899e-23
226	0x28ae3250	1.93397e-14
227	0x0b03efa7	2.5409977e-32
228	0x12a8cdc9	1.0653021e-27
229	0xa7532441	-2.9301786e-15
230	0xa55e7a0f	-1.9296786e-16
231	0x81371f77	-3.3634367e-38
232	0x0185bc59	4.912675e-38
233	0x8478bee8	-2.923992e-36
234	0x0188200e	5.0004506e-38
235	0x2b8c41a0	9.965813e-13
236	0x00a36700	1.5006135e-38
237	0x24352cac	3.9285957e-17
238	0x867b4ed4	-4.7265767e-35
239	0x232db371	9.416347e-18
240	0x122ed9d3	5.517321e-28
241	0x1d9c8b0c	4.1436627e-21
242	0x0181dbea	4.770268e-38
243	0x9511c120	-2.9434866e-26
244	0x00590d01	8.178024e-39
245	0x11977bfe	2.3900015e-28
246	0x225cd52a	2.9928408e-18
247	0x1beef612	3.9532816e-22
248	0x127458af	7.7102135e-28
249	0x15b96865	7.488561e-26

feature_layer.numeric.2.bias f4 [10]
0	0xb4e5128c	-4.2668069e-07
1	0x345d7d89	2.0627898e-07
2	0x3985782e	0.00025457278
3	0x3aadb783	0.0013253543
4	0x3b4641ae	0.003025155
5	0xbaa571e2	-0.0012622441
6	0x3a53c419	0.0008078232
7	0x3b03dc4d	0.0020120323
8	0x3a1e753f	0.0006044693
9	0x00000000	0.0

feature_layer.category.embedding_dict.0.weight f4 [2, 2]
0	0x359d1580	1.1703669e-06
1	0x31a90910	4.9195776e-09
2	0xb984172c	-0.00025194266
3	0xb2f7b97a	-2.883893e-08

feature_layer.category.embedding_dict.1.weight f4 [15, 4]
0	0xba74f0d3	-0.0009343747
1	0xb9d7cdcd	-0.0004116133
2	0xbe937885	-0.28802887
3	0x256f1670	2.0737548e-16
4	0xbcb98f0b	-0.022651216
5	0x372c2760	1.0261167e-05
6	0x3ce78d43	0.028265601
7	0x31cf9024	6.04088e-09
8	0xbf3cc0e7	-0.73731846
9	0x3e4d7145	0.2006274
10	0xb80105f3	-3.0761537e-05
11	0x014805e7	3.6738433e-38
12	0x354490ab	7.322621e-07
13	0x3ae7c6c2	0.0017683136
14	0x3a5c7322	0.000840949
15	0xb470f4d2	-2.2440807e-07
16	0x2badbe57	1.2345219e-12
17	0x3e9f09ff	0.31062314
18	0xa9202acc	-3.5564257e-14
19	0xb9d2bb46	-0.0004019385
20	0x00c99f4c	1.851608e-38
21	0xb3f03b20	-1.1186626e-07
22	0xbef52056	-0.47876233
23	0x3a7f0f04	0.00097297155
24	0x3ee096df	0.43865106
25	0xb48703e6	-2.5148546e-07
26	0x3c2a15f5	0.0103812115
27	0xb177f6dd	-3.6083556e-09
28	0x3e858834	0.26080477
29	0x3532f5d8	6.6667917e-07
30	0x26a939f0	1.1742435e-15
31	0x2b89a152	9.779211e-13
32	0x99490b19	-1.03936976e-23
33	0xb4102686	-1.342506e-07
34	0x3a53da2d	0.0008081522
35	0x3cd8b11f	0.026451645
36	0xb943a211	-0.00018657024
37	0xb814e6dd	-3.5500958e-05
38	0xb23e9c3b	-1.1094978e-08
39	0xb590bb4b	-1.0783345e-06
40	0x1bec8a7b	3.9132416e-22
41	0x3bb16364	0.0054134596
42	0xadd905d6	-2.4672635e-11
43	0x2bb16ba8	1.2606487e-12
44	0xb38387b2	-6.124846e-08
45	0xbf23af96	-0.639398
46	0xa4364c7f	-3.9529754e-17
47	0x3e24165d	0.16024156
48	0xa8cccd11	-2.2737483e-14
49	0x39451b07	0.00018797453
50	0xa75257f9	-2.9191044e-15
51	0x2a0f6a7b	1.2737894e-13
52	0x03c43690	1.1532372e-36
53	0x3afc1a7d	0.0019233968
54	0x27d979c6	6.0361626e-15
55	0xbc320e76	-0.010867706
56	0x3e09ebc6	0.13468847
57	0x382fb1c9	4.1888827e-05
58	0x37278ba4	9.986488e-06
59	0x35c3ac2f	1.4578744e-06

feature_layer.category.embedding_dict.2.weight f4 [16, 4]
0	0x3897da0b	7.240855e-05
1	0xbb0c90ad	-0.0021448538
2	0xb37bfe53	-5.8671798e-08
3	0x3d3d9c25	0.04629149
4	0x288dd302	1.5745655e-14
5	0x333ac5c3	4.3486363e-08
6	0xb52a389f	-6.341233e-07
7	0xba041951	-0.0005039173
8	0x32d94041	2.5291344e-08
9	0xb67f4aea	-3.8041567e-06
10	0xb7e6154a	-2.742805e-05
11	0xb671bb7b	-3.6020926e-06
12	0x3b1b265a	0.0023673982
13	0xb5e572b2	-1.709521e-06
14	0xbd9750b2	-0.07388438
15	0xbc1e7b5b	-0.009672965
16	0x01b17e32	6.520061e-38
17	0x2f2f8b38	1.5965618e-10
18	0xbc07737d	-0.008267281
19	0xbc68e9c2	-0.014215888
20	0x3b94d147	0.0045415494
21	0x395f018d	0.00021267515
22	0x326e332f	1.3865061e-08
23	0x39bd269a	0.0003607765
24	0xb2fec7c8	-2.9660342e-08
25	0xb3e133ad	-1.0486779e-07
26	0xbcf08c72	-0.029363845
27	0x3a86007d	0.0010223534
28	0x387bcb98	6.0032675e-05
29	0x38a4a022	7.8499565e-05
30	0xb9d4b466	-0.00040570198
31	0xb73b6f3b	-1.1171966e-05
32	0x3e2756f7	0.16341768
33	0x33772946	5.7546707e-08
34	0xb2601143	-1.3042441e-08
35	0xb745e5a6	-1.1795584e-05
36	0x3aaa112f	0.0012975092
37	0x36a08891	4.78427e-06
38	0x35db30c2	1.6330962e-06
39	0x3f2d86f8	0.6778407
40	0x2618293d	5.279148e-16
41	0xb2816474	-1.5063257e-08
42	0x381d1141	3.7447786e-05
43	0xba8743ac	-0.001031985
44	0xb188a8ed	-3.9773256e-09
45	0x3b0ab10c	0.0021162657
46	0x3b3cf6ce	0.002883363
47	0x3799d5c4	1.8338564e-05
48	0x3b9fd2e6	0.004877436
49	0x3c83863c	0.016055219
50	0x343c482c	1.753512e-07
51	0x3801c3ee	3.093847e-05
52	0xbb5aa49e	-0.003336228
53	0xb48575e1	-2.485895e-07
54	0x384a682c	4.825757e-05
55	0xaf80f9c5	-2.3460536e-10
56	0xb8a15db4	-7.694532e-05
57	0x3731063c	1.0551474e-05
58	0xb94e8be3	-0.00019697803
59	0x35bc94b7	1.4050373e-06
60	0x32d09028	2.4279942e-08
61	0x3dc46442	0.09589435
62	0x399ea9e1	0.00030262678
63	0x39df03a7	0.00042536596

feature_layer.category.embedding_dict.3.weight f4 [6, 4]
0	0xbb566098	-0.0032711383
1	0xbe97433d	-0.29543486
2	0xbae4c842	-0.0017454701
3	0x39ba362c	0.00035517046
4	0x3be30ca7	0.0069289985
5	0xbdb1f201	-0.08688737
6	0xad8301be	-1.489375e-11
7	0x381edad0	3.787392e-05
8	0xb85301f1	-5.030813e-05
9	0xbd0d627c	-0.03451775
10	0x1289fd70	8.708393e-28
11	0xbdb29fc4	-0.08721879
12	0x3c0ac799	0.008470439
13	0x2f134b6b	1.3396366e-10
14	0xbae71493	-0.0017630033
15	0x35ec3584	1.7598945e-06
16	0x3e76ccd5	0.24101575
17	0x3baa3791	0.0051946123
18	0x29c0f675	8.569266e-14
19	0xb6c41010	-5.843125e-06
20	0xbf31812b	-0.6933772
21	0x38c572c7	9.415071e-05
22	0xbe550050	-0.208009
23	0xaf71d3e5	-2.1994102e-10

feature_layer.category.embedding_dict.4.weight f4 [9, 4]
0	0x3bde3325	0.0067809992
1	0x3d9c0434	0.07617989
2	0x3c58e84b	0.013238977
3	0x3d96c8e5	0.07362536
4	0x3e7d8db7	0.24761091
5	0xbb628660	-0.0034564957
6	0x3e906e4c	0.2820915
7	0x388d0584	6.724431e-05
8	0xb555cf28	-7.9650135e-07
9	0x35599029	8.104858e-07
10	0x36af6bde	5.227964e-06
11	0xbe026277	-0.12732874
12	0xbdca386a	-0.098740414
13	0xb4b53085	-3.374918e-07
14	0xbc881940	-0.016613603
15	0x3fb3a752	1.4035437
16	0x3e13917f	0.14410971
17	0x3ea58a80	0.3233223
18	0xbe4c7d96	-0.19969782
19	0x3e514769	0.20437397
20	0xbb63c2ae	-0.003475349
21	0x3e1f4a2c	0.15555638
22	0xb953085b	-0.00020125641
23	0x397ab1f9	0.00023908158
24	0xb794d0e0	-1.774024e-05
25	0x3ec70271	0.3886905
26	0xbcfb16ea	-0.030650575
27	0x3dc1eea3	0.094693445
28	0x3cb97d8c	0.022642873
29	0x37c2a5b0	2.3203756e-05
30	0xbaa0bdc3	-0.0012263585
31	0x36db704b	6.539781e-06
32	0x3d03239e	0.03201639
33	0x01223cd5	2.9798346e-38
34	0x3ccb9ac2	0.024854068
35	0x3c22a6cb	0.009927462

feature_layer.category.embedding_dict.5.weight f4 [7, 4]
0	0xbbe31abd	-0.0069306777
1	0x3d42202c	0.047393963
2	0x3e61dfb8	0.22057998
3	0x3d41830a	0.04724411
4	0x3af07706	0.0018346019
5	0xadc42ee2	-2.230344e-11
6	0xbc841972	-0.016125415
7	0x3ae7d5cd	0.0017687619
8	0x3c151418	0.009099029
9	0x3db71a2c	0.08940539
10	0x34b5779f	3.3800913e-07
11	0xbd48c34c	-0.049014375
12	0xbbdc3d05	-0.0067211413
13	0x3b822e9f	0.003972843
14	0xb8f6f613	-0.00011776029
15	0xbe829b2c	-0.25509012
16	0x3b839b6d	0.004016331
17	0x3d603156	0.05473455
18	0x34f71d9f	4.6028887e-07
19	0xbc97a5fe	-0.018511768
20	0xb91f6e26	-0.00015204455
21	0x81a6ea90	-6.131535e-38
22	0x01869ebe	4.945161e-38
23	0x38a5f7d6	7.913976e-05
24	0xbcd53a39	-0.02602874
25	0x2d9a8693	1.7567536e-11
26	0x3bf21963	0.0073882802
27	0xb7ecd9bc	-2.8234783e-05

feature_layer.category.embedding_dict.6.weight f4 [5, 4]
0	0xb4c8ca0a	-3.7399906e-07
1	0xb5a8aa2d	-1.2566503e-06
2	0xaa2552ca	-1.4683667e-13
3	0xadb40ea7	-2.0470138e-11
4	0x364b2413	3.0270355e-06
5	0x268a1e4e	9.583888e-16
6	0xb91d7aa8	-0.0001501838
7	0x3addefa7	0.0016932384
8	0xb63be417	-2.7997937e-06
9	0x9bf375d4	-4.0277122e-22
10	0xb910e670	-0.00013818755
11	0x3ba5f582	0.005064667
12	0x3dcf3099	0.10116691
13	0x3eb24b80	0.34823227
14	0xa545b740	-1.7149114e-16
15	0x3c22ae3a	0.009929234
16	0x3c1d406f	0.009597882
17	0x3ddb45a0	0.10706639
18	0x3e8004ae	0.2500357
19	0x3bf9eb00	0.007626891

feature_layer.category.embedding_dict.7.weight f4 [42, 4]
0	0x32112308	8.448076e-09
1	0x263949f8	6.4285015e-16
2	0x1de46420	6.0454624e-21
3	0xaf3ce614	-1.718024e-10
4	0x3d3054dc	0.04304968
5	0x019a6514	5.6715706e-38
6	0x0030420e	4.4318e-39
7	0x3ae6a82b	0.0017597725
8	0x31794f07	3.627919e-09
9	0x35ddcdfd	1.6525734e-06
10	0xbd021f90	-0.03176838
11	0x3e1d4f2e	0.15362236
12	0x3ac82126	0.0015268668
13	0xbdbd51ec	-0.09244141
14	0x372dbffd	1.0356304e-05
15	0x3b96a7b2	0.0045976276
16	0x1fcd3db3	8.692295e-20
17	0xbc2a14b7	-0.010380915
18	0xb796e2d7	-1.7987024e-05
19	0x9e66755b	-1.2200367e-20
20	0x2f01e583	1.181402e-10
21	0x3421c641	1.5066418e-07
22	0x3c092318	0.008370183
23	0x3d0e35e2	0.034719355
24	0x3d208ab4	0.039194778
25	0xbd8ca2b6	-0.06866972
26	0xb158278c	-3.1454617e-09
27	0x3f260def	0.6486501
28	0x3c4f2d0c	0.012645017
29	0xb823034f	-3.886531e-05
30	0xb106ccba	-1.961594e-09
31	0x35cf6452	1.5451899e-06
32	0xbdd92833	-0.106033705
33	0xbb7eca7a	-0.003887801
34	0xbf0bda0a	-0.54629576
35	0x3ebee2fe	0.37282556
36	0x39140b23	0.00014118529
37	0xb5992b29	-1.141195e-06
38	0x3e6bb778	0.23019207
39	0x2c2172dc	2.2943236e-12
40	0x3ebb9d06	0.36643237
41	0x8346a622	-5.837768e-37
42	0xbcd3ad17	-0.025839372
43	0xb0077ba3	-4.928841e-10
44	0xb570f073	-8.9756867e-07
45	0x0e39e0ff	2.2911342e-30
46	0x860a37a8	-2.5995805e-35
47	0xb53c286a	-7.009427e-07
48	0x38bdda6a	9.052905e-05
49	0xbd39ec87	-0.045391586
50	0x00f0e880	2.2123924e-38
51	0x2e3484c4	4.104518e-11
52	0x3d5a9a50	0.05336982
53	0x9a2949b0	-3.5007905e-23
54	0xb8e34d72	-0.00010838629
55	0x37805198	1.5296784e-05
56	0x33082aa6	3.1703756e-08
57	0xbf190d89	-0.5978628
58	0x3e0f6921	0.14004947
59	0x33053239	3.1012153e-08
60	0xbd3786bc	-0.044806227
61	0x0024d1de	3.381364e-39
62	0xb4055575	-1.241768e-07
63	0xbbc6c8ce	-0.0060664183
64	0x812dcf7e	-3.192395e-38
65	0x818ee5dd	-5.24924e-38
66	0x1bc19ca8	3.2030408e-22
67	0xbdc79986	-0.09746079
68	0xaa74e52c	-2.1751063e-13
69	0xbd9d7bb0	-0.07689607
70	0x343e3bde	1.7716908e-07
71	0x360b29f6	2.0737039e-06
72	0x813369f4	-3.2953125e-38
73	0x155daf9a	4.476912e-26
74	0xa1a49b36	-1.1154156e-18
75	0x80283a0c	-3.694243e-39
76	0x3211584e	8.460189e-09
77	0x9d2423ec	-2.172379e-21
78	0x3da3d141	0.079988964
79	0x328105b0	1.5020163e-08
80	0x279fd0e9	4.4357866e-15
81	0xbd0a507f	-0.033768173
82	0x019e2077	5.808662e-38
83	0xbe74e58d	-0.23915692
84	0xb91b13d8	-0.00014789344
85	0xbdb98994	-0.09059444
86	0x3a98a4d7	0.0011645806
87	0x36a76f19	4.9899213e-06
88	0xa48f1efe	-6.206887e-17
89	0x37c313c8	2.3255023e-05
90	0x3d5a018e	0.05322414
91	0xbcc8f3e3	-0.024530357
92	0xb9e366c2	-0.00043373375
93	0x9e0f5ee0	-7.589977e-21
94	0x3adb5591	0.0016733875
95	0x362c141c	2.5641702e-06
96	0x3dcd5120	0.10025239
97	0x3d219b80	0.039454937
98	0xa304b5fb	-7.19427e-18
99	0x3d8227e2	0.06355263
100	0x30ed41ca	1.7262718e-09
101	0x38d2b26e	0.000100468154
102	0x2f936676	2.6811947e-10
103	0xbc265a62	-0.010153385
104	0x3254ba9a	1.2382452e-08
105	0x2b88148d	9.669085e-13
106	0x386a7d12	5.590643e-05
107	0xbdb05ce9	-0.08611471
108	0xbb2d9a4b	-0.002648967
109	0x34199250	1.4302464e-07
110	0x2c32985a	2.5379893e-12
111	0x3dfa5eaa	0.12225087
112	0xbdece72e	-0.115675315
113	0x344494d2	1.8308063e-07
114	0x006cd7ae	9.995605e-39
115	0x3e12310b	0.14276521
116	0x3bf32a30	0.0074208006
117	0x2a0ebaf5	1.2676997e-13
118	0xbb581ca2	-0.003297605
119	0xbe074bab	-0.13212459
120	0xb2c7c5b2	-2.325655e-08
121	0xb840b519	-4.5945028e-05
122	0xbe8d107c	-0.2755164
123	0x3384e8fc	6.1891086e-08
124	0xbf1528f1	-0.58265597
125	0x3b0eb458	0.0021774974
126	0x3b0ce7a5	0.0021500376
127	0x3b5ac053	0.0033378794
128	0x3925d744	0.00015815819
129	0xad04fe73	-7.55983e-12
130	0x229bdc78	4.2246265e-18
131	0xbd0c7626	-0.034292363
132	0x36b3b08e	5.3551694e-06
133	0xbc960ff7	-0.01831816
134	0x3e73a070	0.23791671
135	0x39e02166	0.00042749493
136	0x3b37b373	0.0028030544
137	0x222c0373	2.3312173e-18
138	0x3880370f	6.113771e-05
139	0x1ea7ab0e	1.775256e-20
140	0x2e937f1f	6.707367e-11
141	0xba520bc4	-0.00080126175
142	0xbedc22d2	-0.42995316
143	0xbba6760a	-0.0050799893
144	0x39dec91f	0.00042492987
145	0xbd15229a	-0.03640995
146	0xbe9cf4c2	-0.30655485
147	0x1f9f1c4b	6.7385926e-20
148	0x36603827	3.3411286e-06
149	0x00ad8df8	1.593847e-38
150	0xa81021ab	-8.000906e-15
151	0x2bd9071c	1.5420751e-12
152	0x96a524c1	-2.6680383e-25
153	0x39ceb929	0.00039429337
154	0x1497e6c7	1.5338129e-26
155	0x1401fcab	6.5626656e-27
156	0xbb60dbcc	-0.0034310697
157	0xbe2816fe	-0.16415021
158	0x3d98b155	0.074556984
159	0xb9cabb46	-0.00038667972
160	0xb349fa00	-4.7026333e-08
161	0xbd065ecb	-0.032805245
162	0xbdbd2c60	-0.092369795
163	0xb82a58b1	-4.061376e-05
164	0xb66d1141	-3.5325795e-06
165	0xbc25e8d3	-0.01012631
166	0x3e18cb17	0.14921223
167	0xb945b6a8	-0.00018855429

forest.trees.0.pi f4 [8, 2]
0	0x3e8b15d1	0.27165082
1	0xbe8b086a	-0.27154857
2	0xb2891d3f	-1.5962199e-08
3	0x331dbd8a	3.6726796e-08
4	0xb18a03b4	-4.0167496e-09
5	0x319616b4	4.3681556e-09
6	0x403b9fb6	2.931623
7	0xc03b9fb5	-2.9316227
8	0x3fb1a891	1.3879567
9	0xbfb1a893	-1.387957
10	0xbf597097	-0.84937423
11	0x3f5970a4	0.849375
12	0xbed63d24	-0.41843522
13	0x3ed642e4	0.41847908
14	0x3decb47f	0.115578644
15	0xbdecb459	-0.11557836
